results/CityAgent/CityAgent/CityAgent-331505.pt (torch, 550162 bytes, 40 tensors)

discrete_act_size_vector f4 [1, 2]
000000 00 00 20 42 00 00 f0 41
       40.0 30.0

network_body._body_endoder.seq_layers.0.weight f4 [128, 8]
000000 8c ca 80 be 82 72 ac 3e ff 09 2a 3f cf 17 5a bd
       -0.2515453 0.33681113 0.664215 -0.053245362
000010 30 e8 ad bc fd 86 00 be f3 88 a7 3e 4b 6f 8d be
       -0.02122888 -0.12551494 0.3272167 -0.27623972
000020 c3 64 94 3d 5f 65 52 3d 83 86 11 bf b5 1b 88 bf
       0.07245781 0.051366206 -0.56845874 -1.0633456
000030 fb f5 73 3f be 47 09 3e 25 08 7e be 8d 96 04 3f
       0.9529721 0.13406274 -0.24807794 0.5179222
000040 ca 32 dc be 5f f8 de be 13 a1 aa 3e 59 a9 06 be
       -0.430075 -0.43548867 0.33326015 -0.13150539
000050 ab 77 d6 bb 4f 65 0b be f4 0a 64 be 16 f8 5e 3e
       -0.0065450273 -0.13612865 -0.22269803 0.21774325
000060 26 6a 6c be 51 3b 51 be 26 6e 0c bf 5b 23 a1 be
       -0.23087367 -0.20432784 -0.54855573 -0.31472287
000070 6e 70 19 bf f0 d9 23 ba 35 3e 12 bf d4 7f 60 be
       -0.5993718 -0.0006250432 -0.5712617 -0.21923763
000080 5d cf e5 3d 35 97 83 3e 75 c5 80 be 69 1f bf be
       0.11221192 0.257013 -0.25150648 -0.37328652
000090 73 e1 34 3f 4c c9 e4 3d e4 80 82 3f 1c 73 5d 3e
       0.7065651 0.11171207 1.0195584 0.21625942
0000a0 71 7c 0b bf b9 8b 32 be 5b 93 60 3e 42 6c 28 3f
       -0.5448676 -0.17436112 0.21931212 0.6579019
0000b0 dd aa e8 be 7f 0b 65 bd 3e ce 5e 3f 45 01 e5 be
       -0.45442858 -0.055919167 0.8703345 -0.4472753
0000c0 90 e7 1c 3c 01 f2 24 3e 8f ad dd bd 27 d2 13 be
       0.009576693 0.16107942 -0.10824119 -0.14435636
0000d0 08 45 04 be c7 81 f8 bd e4 12 7d 3e d3 52 84 be
       -0.12916958 -0.12134128 0.24714237 -0.2584444
0000e0 19 2d b3 3c 9c 9f 63 bd e6 9a 94 be 1b 4c fd be
       0.02187209 -0.055572137 -0.29024428 -0.49472126
0000f0 42 9c d4 3e ca bc 90 be 2e aa ad bd 37 31 83 3d
       0.41525465 -0.28269035 -0.08479725 0.06405871
000100 c3 82 76 bf 25 3c 79 be 2b 84 93 3d c0 ac d2 be
       -0.96293277 -0.2433935 0.072029434 -0.41147423
000110 ff 2a 27 be 49 0d c9 3e 3f 31 65 be 81 2e ac be
       -0.16324995 0.39267948 -0.22382067 -0.3362923
000120 01 cf 25 be 91 86 93 3e 9a 22 d7 be c6 b9 16 bf
       -0.16192247 0.28813604 -0.42018586 -0.5887722
000130 04 2b 05 bf b0 db b8 3e 8b 34 3e bf 5b 6b 68 be
       -0.5201876 0.36105108 -0.74298924 -0.22697203
000140 ed 08 40 be ea 9d c0 3e 0e 66 91 3e f2 46 3c 3f
       -0.18753405 0.3762048 0.28398174 0.73545754
000150 18 86 84 bd 40 8c e1 be f3 90 d7 bd 8c 26 e2 be
       -0.06470889 -0.44052315 -0.10525694 -0.44170034
000160 e2 9b d5 bd cf 09 db be fd c6 8f 3e 0d 05 3e bd
       -0.10430123 -0.4278092 0.28081504 -0.046391536
000170 de 48 c7 3e 2e 22 1c be 8c 00 d6 3e a5 26 d4 be
       0.3892278 -0.15247414 0.41797292 -0.41435733
000180 e0 82 91 be 6d 65 b0 bc 3a 2a 45 be 19 4e 89 bf
       -0.28420162 -0.021532739 -0.1925439 -1.0726959
000190 34 06 39 bd c1 75 aa 3e 56 c2 29 3f 97 6a 81 3e
       -0.04517193 0.33292964 0.6631216 0.25276634
0001a0 8b 3e a8 bd 58 b0 29 be 17 ed b5 bd f5 b2 2a be
       -0.08215054 -0.16571176 -0.08883112 -0.16669829
0001b0 d1 7f 82 3e f8 6b a3 3e f1 eb de 3e 01 43 09 bf
       0.2548814 0.3191831 0.43539384 -0.53617865
0001c0 0d 40 1a 3e 60 70 01 bd ea eb 77 be ec 69 20 bf
       0.15063496 -0.03160131 -0.24211088 -0.62661624
0001d0 66 4b 30 bf e0 05 0f 3d 3c e2 14 be b9 77 03 3d
       -0.6886505 0.034917712 -0.14539427 0.0320966
0001e0 34 1f eb be 03 0d fd bb a1 30 fc 3c 12 45 d3 3e
       -0.45922244 -0.0077224984 0.030784907 0.41263634
0001f0 66 35 bb 3e c1 f7 07 3f af 50 b3 3e b6 a0 7d be
       0.36564177 0.5311242 0.35022494 -0.24768338
000200 d5 c5 88 bd e7 55 66 be 00 66 51 bf 68 67 08 be
       -0.066783585 -0.22493707 -0.81796265 -0.13320696
000210 e0 62 c0 bd b2 81 9d 3b da 65 3b 3d dd ed 22 bf
       -0.09393859 0.0048067207 0.04575143 -0.636442
000220 a7 57 d9 be 0f 4a cd be aa 23 13 3e 89 c3 05 bc
       -0.42449686 -0.40095565 0.14369074 -0.008164295
000230 38 b8 b9 3e 32 56 39 3f 96 f1 63 3d 0c 6b 56 be
       0.3627336 0.7239715 0.055650316 -0.20939273
000240 15 be 0e 3f 6d c1 04 3f 0b 4c fe bd 7e f1 4e 3e
       0.5575879 0.51857644 -0.12416848 0.2020931
000250 c2 cf 9b 3e 79 f7 23 3d ed bb 26 3e e7 0d e1 3e
       0.30431944 0.04003093 0.16282625 0.4395592
000260 4c ae af be 34 90 23 be 2f fa 40 3e 49 76 09 3d
       -0.34312665 -0.15972978 0.18845437 0.03356007
000270 2f 11 7c 3e 39 83 09 be 7e 16 2e be eb 81 1a 3f
       0.2461593 -0.13428964 -0.17000768 0.6035449
000280 b8 2b 4a 3e e2 78 87 bc f1 04 d9 be 42 e5 b6 3e
       0.1974324 -0.016537134 -0.42386582 0.35721785
000290 8c 6a 82 3d 9a 73 95 be f1 60 38 bf 06 9e e6 be
       0.063679785 -0.2918976 -0.7202292 -0.45042437
0002a0 cd 19 aa 3e 0b 38 da 3e 88 8f a3 be 59 17 49 bf
       0.3322281 0.42620882 -0.31945443 -0.7855125
0002b0 a7 49 34 3d b3 e2 a3 be cd 05 55 bd 47 2d c5 3d
       0.044015553 -0.32008895 -0.052007485 0.096277766
0002c0 e5 b4 06 bf 82 86 ae bd 6a 3b 50 bd 67 5a 43 3f
       -0.52619773 -0.08521749 -0.05083791 0.7630982
0002d0 ae 05 05 be b3 18 fd 3e 3e c9 e6 3e 7b 5d 47 3f
       -0.12990448 0.49432907 0.4507541 0.77877015
0002e0 b4 02 37 bf cd 54 b2 3d 40 02 92 bc 34 ba 25 3f
       -0.714885 0.08707581 -0.017823339 0.6473725
0002f0 60 e6 ba 3d a2 73 55 3e 93 65 90 3e 59 67 0e 3f
       0.09125972 0.20844892 0.28202495 0.55626446
000300 de 88 1f 3d db 64 aa 3e b0 f8 f4 bc 7f a3 1c be
       0.038948886 0.33280072 -0.02990374 -0.15296744
000310 fc 7a 18 3e cf b3 1f 3e 5c df 36 bf d5 df 62 be
       0.14890665 0.15595935 -0.7143457 -0.22155698
000320 16 cd a9 3c ee 09 7e 3d 96 4c c4 3d d1 ee a7 be
       0.020727675 0.06202119 0.0958492 -0.3279939
000330 a2 d1 91 bd c9 0d c2 bd d5 20 4f be 6b 93 a7 3e
       -0.071200624 -0.094752856 -0.20227368 0.32729658
000340 a2 2b 10 3c ab aa fa be ea 0e 21 be d5 e7 be be
       0.008799465 -0.48958334 -0.15728346 -0.3728625
000350 1c 5d 7a be f0 85 88 3e a5 ee 45 bc fe fd 56 bf
       -0.24449581 0.26664686 -0.012080823 -0.8398131
000360 92 7f d7 3c 84 21 92 3e e1 f3 56 be 88 5b 5f be
       0.026305947 0.28541195 -0.2099147 -0.2181226
000370 2a 65 ac 3c c2 5c fc 3d 4f 35 b3 be 7f bb 22 3d
       0.021044333 0.1232238 -0.3500161 0.03972959
000380 1f ce c7 be 93 b7 ac bd d2 7b 9f 3d 6a 1d 9c 3e
       -0.39024445 -0.084334515 0.07787289 0.3049119
000390 ec 41 0c 3f dd da 29 bf d1 4f e2 bd 67 c9 e5 3e
       0.5478809 -0.66349584 -0.1105038 0.4488022
0003a0 11 22 f1 3c 55 fe 84 bd 45 a6 87 be c8 8f 01 bd
       0.02943519 -0.064938225 -0.2649404 -0.03163126
0003b0 3f a3 d9 3e 10 24 ce 3e 7d e0 8a 3e fa 2f a4 be
       0.4250736 0.40261889 0.27124396 -0.32067853
0003c0 a9 9e c2 be a0 f2 ca be fd 92 ee bb 85 89 8d be
       -0.38011673 -0.39638233 -0.007280706 -0.27643982
0003d0 ce 61 08 be 62 bf a8 3e 5a fd 1c 3f 4b 5e ba be
       -0.1331856 0.32958513 0.61324084 -0.36400065
0003e0 64 43 5f 3e d7 7f c7 be fc 8c cc 3e d3 8b 7e be
       0.21803051 -0.38964722 0.39951313 -0.24858026
0003f0 22 ab bc 3e b5 0a e6 3e 44 9e 0d bf ac e5 86 3d
       0.36849314 0.44930044 -0.5531962 0.06586775

network_body._body_endoder.seq_layers.0.bias f4 [128]
000000 d6 f1 13 3c 8c 99 7e bd 08 17 30 bd d3 14 a1 3b
       0.009029826 -0.062158152 -0.042990714 0.0049158125
000010 28 f1 08 be 46 67 65 3d 05 fd e8 bd 43 c4 3f bb
       -0.13373244 0.056006692 -0.11376385 -0.0029261268
000020 43 0e 4c bb ce 25 bb bd 53 b2 fd bc 3a e7 93 bd
       -0.003113643 -0.0913807 -0.03096882 -0.07221837
000030 0c 63 16 bd 85 eb 91 bd b6 2f f2 bd 32 1a 31 3c
       -0.036715552 -0.07125 -0.118255064 0.010809468
000040 bd c3 d4 bd e7 67 9c bd 2c 09 1e be 42 cc 0a bd
       -0.103888966 -0.07637005 -0.15433186 -0.0338862
000050 01 22 0c be 72 b8 20 be c2 27 f5 3b 92 52 ab bd
       -0.13684846 -0.1569536 0.007481546 -0.083653584
000060 b6 91 3f bd 01 1b 46 bc c2 57 cc 3b a1 7a 0e 3c
       -0.04676982 -0.012091399 0.0062360475 0.008696229
000070 da 7e db bc 42 4b cb bd 02 ea 1b bd 3b 8e 97 3d
       -0.026793886 -0.09926464 -0.038064964 0.07400175
000080 11 cf ec bd a8 dd 07 3d 85 32 af 3c e1 c5 f2 bc
       -0.11562932 0.033170372 0.021386394 -0.029635372
000090 f2 1f 00 bd 6b dd d2 bc 50 1c 46 bd 1a 4c aa bd
       -0.031280465 -0.025740346 -0.048366845 -0.083152965
0000a0 ab e9 37 be 51 f4 07 be a2 67 47 bd 5a bf 0e be
       -0.17960231 -0.13276793 -0.048682816 -0.13940182
0000b0 d9 f6 d7 ba b5 60 52 3c f1 6b b2 3d fb 28 0b be
       -0.0016476765 0.01284044 0.087119944 -0.13589852
0000c0 16 e9 43 bd 18 87 ef bd a4 a6 73 bd 95 21 e2 bc
       -0.04782971 -0.11695689 -0.059485093 -0.027603904
0000d0 7f 2c 14 3c 04 77 e9 bd a9 22 18 be b4 2e 95 3a
       0.009043812 -0.113996536 -0.14856972 0.0011381716
0000e0 54 06 bb bd a5 22 8b bd 0b 95 21 bd a6 5f 7f bd
       -0.09132066 -0.06793717 -0.03944878 -0.062347077
0000f0 e1 f3 99 3d 9b 96 14 bd 84 82 cf bd 6a 87 68 bd
       0.07517219 -0.03627644 -0.10132316 -0.056769766
000100 fb 70 96 bd b2 8d 8b bd eb 31 e3 bd 18 46 56 bd
       -0.07345768 -0.068141356 -0.110935055 -0.05231294
000110 a8 a4 fc bd 77 22 4e bd 36 c9 68 bd 92 11 c4 3d
       -0.12336093 -0.050325837 -0.056832515 0.09573664
000120 2b 9f 97 bd d2 9d 17 be 63 db 4e bc b5 cb d1 bb
       -0.07403406 -0.14806297 -0.012625548 -0.0064024576
000130 7f 4e f0 bd c4 f3 d3 bd b8 36 98 bc 4f dc fd 3c
       -0.11733722 -0.10349229 -0.01858078 0.03098884
000140 e3 79 ff bc 42 86 82 3c b9 30 94 3d dd c5 d1 bd
       -0.03118605 0.01593316 0.072358556 -0.102428176
000150 4e cc 3e 3b 85 5a a6 bd 4a cc 2b bd 61 d0 00 be
       0.0029113474 -0.08122734 -0.041942872 -0.1257949
000160 01 ac 40 3d 6f c1 9a bc 16 1f 1f be 5b c9 08 be
       0.047039036 -0.018891064 -0.15539202 -0.13358061
000170 c8 ea 1f bd a9 ab cc bd 1e ec e4 bd 5d 4b 08 be
       -0.039042264 -0.09993679 -0.11177848 -0.13309999
000180 37 5a e6 bd 76 8e 83 3d 27 8e 9b bb c6 08 4e bc
       -0.11247676 0.06423657 -0.0047471705 -0.012575334
000190 18 d8 ab 3c 3d c0 80 bd 5b f5 ca bc 78 ea f8 bd
       0.020977065 -0.062866665 -0.024775198 -0.12154096
0001a0 bf 90 7a bc f3 ff f1 bc 04 2d ad bd 48 c1 98 bd
       -0.015293299 -0.029540991 -0.08455852 -0.074587405
0001b0 40 46 df bc 38 3e 8c bc 7b e8 e2 bc fd b9 01 bd
       -0.027255177 -0.017119512 -0.027698746 -0.031671513
0001c0 3a 3f db bd 6c ed 51 3b 17 ad 00 be 55 ce bd bd
       -0.10705419 0.0032032384 -0.12566029 -0.0926787
0001d0 b8 a0 f6 3b 49 6e 67 bd ca 83 0d be dd be a9 bd
       0.0075264834 -0.05650166 -0.13819805 -0.082883574
0001e0 18 15 8d bd ad 55 0f be 4a a1 0b bd 9e 0e 55 bd
       -0.06888789 -0.13997526 -0.034089364 -0.052015893
0001f0 53 1c ea bd e8 73 49 bd bf 8b 4d 3d 5f e7 4f bc
       -0.11431184 -0.049182802 0.0501821 -0.0126894405

network_body._body_endoder.seq_layers.2.weight f4 [128, 128]
000000 6d f8 4f 3c cf 10 5c 3d e7 26 01 be 94 a7 ec 3d
       0.012693507 0.053726967 -0.12612496 0.115554005
000010 a8 4c 94 3d 19 7c 99 3b 5f a2 ca bc 90 76 0d be
       0.072411835 0.004683983 -0.024735628 -0.13814759
000020 f3 4b cb 3d 8b 04 7d bc 3f 83 68 3d 70 b1 a5 be
       0.099265955 -0.015442978 0.05676579 -0.32361937
000030 eb 98 69 be 10 f1 88 3d 5c f7 8b 3d 29 8a ea bd
       -0.2281224 0.06686604 0.068342894 -0.11452133
000040 55 25 1a be 43 24 b2 bd 98 91 ca bc 45 b8 99 3d
       -0.15053304 -0.086983226 -0.024727628 0.0750585
000050 67 d3 e5 3d 03 41 bc 3d 90 4a 13 bd 6b 55 e7 bc
       0.112219624 0.091920875 -0.03595978 -0.028238973
000060 49 ff 4a be cb 1f af 3d 9d f2 24 be a2 24 01 3b
       -0.19823946 0.08550986 -0.16108175 0.0019705673
000070 0a 44 50 be ea 52 cf 3d 18 0a 34 be f2 1f 99 bd
       -0.20338455 0.101232365 -0.17581975 -0.07476796
000080 20 69 d3 bd e5 7d de bc 15 b4 8b bc d6 58 fa 3d
       -0.103227854 -0.02715964 -0.017053643 0.12223975
000090 03 e6 47 3c 5d 03 5b bd 02 14 76 3d 31 96 33 3e
       0.012200835 -0.053470004 0.060077675 0.17537762
0000a0 ce f6 0d 3e 46 7e ff bc 67 84 5b be 03 25 a0 bc
       0.1386368 -0.031188142 -0.21437226 -0.019548899
0000b0 1d 8e 08 bd 23 3e 04 3d 60 31 10 be e4 96 97 bd
       -0.033338655 0.03228582 -0.14081335 -0.07401827
0000c0 0e 18 e1 3d eb e2 64 3d 1c da a5 bb e9 fb 67 be
       0.10990916 0.05588047 -0.005061401 -0.2265469
0000d0 6f 47 96 bd 6e 91 8c 3d 22 68 06 be cb 92 4f be
       -0.073378436 0.06863676 -0.13125661 -0.20270841
0000e0 a1 13 fa bc 61 d9 b7 3d 8b 02 5c bd 7c 11 b6 bd
       -0.030526938 0.089770086 -0.053713363 -0.08890054
0000f0 fb 68 d1 bd 3a 3a 8c 3d 6d b3 88 3b 75 fa 32 be
       -0.102251016 0.06847043 0.00417178 -0.17478354
000100 2a 10 5c 3c 9e b6 c9 bd 4f 15 0e bb c7 67 c2 bc
       0.013431588 -0.098492846 -0.0021680181 -0.023731126
000110 74 bc 48 bd 5f 76 7a 3d 90 c1 46 3c 54 38 ce bc
       -0.049007848 0.061148044 0.01213111 -0.025173344
000120 82 74 b7 3d 7e 46 58 3e 9d 20 f8 bd b5 0c c5 bd
       0.08957769 0.2112064 -0.121155955 -0.09621564
000130 5d 14 d0 bd e8 77 36 be 63 af 8a bd 04 e6 5a be
       -0.10160134 -0.17819178 -0.067717336 -0.21376806
000140 76 4b 02 be fe 97 14 3d 16 73 54 bb 2d 91 1c be
       -0.12724099 0.036277764 -0.003241723 -0.15289755
000150 b4 0b 95 be b6 0c 15 be 7f 17 cc 3d be 09 cb 3c
       -0.2911049 -0.1455563 0.09965419 0.024784919
000160 5e 89 37 3d d1 56 ac bd cf 92 43 3c 80 2f d4 3c
       0.044808738 -0.084149964 0.011936857 0.025901556
000170 c2 4d 69 bd 97 60 68 3c c0 24 8b 3d e1 9b d5 bc
       -0.05695892 0.014183185 0.06794119 -0.026075305
000180 70 05 1c 3e 91 70 3f bd 0e 43 9f bd a6 7c 07 be
       0.15236449 -0.04673821 -0.077764615 -0.13231143
000190 66 d1 d1 bd a1 c7 59 be 54 73 67 3d 55 0e 8d bb
       -0.10245018 -0.21267559 0.05650647 -0.004304687
0001a0 06 b4 1a bc 36 a9 d6 3d 62 3c 87 3d 02 13 e6 bd
       -0.009442335 0.10481493 0.06603314 -0.11234094
0001b0 02 8a 51 be 1c 3c e1 bd 40 2a 14 be 46 47 95 3d
       -0.20462802 -0.10997793 -0.14469242 0.07288985
0001c0 e5 26 89 bd a4 05 48 be 61 e5 d0 bd 57 64 29 bd
       -0.06696872 -0.19533402 -0.102000006 -0.041355457
0001d0 31 7f df 3d d7 f5 1c be 8e d7 64 be f3 49 14 bd
       0.10912932 -0.15328155 -0.22347853 -0.036203336
0001e0 c2 ea ca bc 43 ac cd 3c bb 0d 35 3c de a5 f7 bd
       -0.024770144 0.025106555 0.011050637 -0.120921835
0001f0 64 39 9a bd 53 ea b6 3d 74 d7 4c bd 95 44 26 bd
       -0.07530478 0.089314125 -0.05001016 -0.04059275
000200 6d c1 0b be 55 2b ef bd ae fd c8 3d 88 62 b3 3b
       -0.13648005 -0.11678187 0.098140106 0.0054743923
000210 cc ec 43 bd 66 5f 23 bd dc 7f 1f bd 32 5e 0c 3e
       -0.04783325 -0.0398859 -0.038940296 0.13707808
000220 3f 3e 61 3d a7 fa 87 3d 80 b7 1e bd b8 71 91 3d
       0.054991003 0.06639605 -0.038749218 0.07101768
000230 72 66 97 3d c2 bc 33 3d fb 6d fd bd 5f 12 26 3e
       0.07392587 0.043881185 -0.12374493 0.16217946
000240 23 b6 fc 3d f9 a5 e6 bc 92 44 3f 3c 89 ce 2f 3d
       0.12339427 -0.028155314 0.011674063 0.042921577
000250 5e 04 35 bc 93 6b 3f be df 2e df 3d de a1 c6 3d
       -0.0110484045 -0.1869338 0.10897612 0.096988425
000260 6e a3 12 3d b9 c3 da 3d bc 86 ef 3d 17 9e 4f bc
       0.03580039 0.106818624 0.116956204 -0.012671969
000270 de fa fd 3d 38 56 0f be 87 3e 1c 3d 03 69 66 bd
       0.12401365 -0.13997734 0.03814557 -0.05625249
000280 00 68 49 3e dc 41 84 bd f1 01 28 bd c3 2d 6d 3c
       0.19668579 -0.06457874 -0.041017476 0.0144762425
000290 6f 24 c4 3d fe e9 eb 3d 0e ec 0b 3e ee 02 45 3d
       0.09577262 0.1151924 0.13664266 0.048098497
0002a0 17 a7 4c be cf 3b a8 bd be 86 e5 3d 66 9f bd bd
       -0.19985615 -0.082145326 0.11207341 -0.092589185
0002b0 1e e7 64 be f1 df ba bc 49 09 ee 3b 52 30 cd 3d
       -0.22353789 -0.022811862 0.0072642905 0.10018982
0002c0 57 5d 8a 3d b3 ee 43 bc 36 07 17 3a 14 f8 85 bd
       0.067560844 -0.011958766 0.00057612674 -0.06541458
0002d0 8a cf 1e 3d d8 9e 5a be 9f 86 b1 3d 10 62 96 3d
       0.038772143 -0.21349657 0.08668255 0.07342923
0002e0 74 e6 e1 bd bd 56 66 3d 0c ae 04 be 0e 36 e2 3d
       -0.110302836 0.056235064 -0.12957019 0.11045466
0002f0 bc 9e 53 3d 65 c2 9b bc 35 db b2 bd c7 e7 3d 3d
       0.051665053 -0.019013593 -0.08733217 0.04636362
000300 21 53 56 bd 78 0b 35 3d 64 3a 1f 3d 38 fd ff bd
       -0.05232537 0.04420039 0.038874045 -0.124994695
000310 57 c0 78 be 2f 5a 62 3d 83 c9 f6 3d 66 3e 94 3d
       -0.24292122 0.055261787 0.12050154 0.07238464
000320 ed e0 66 3d 80 1a b8 3c 08 4d ac 3d ba 1a 18 bd
       0.05636685 0.022473574 0.0841313 -0.037134863
000330 c0 fe a2 3d fe b6 2e 3d 56 13 be bd c4 11 cb 3c
       0.07958746 0.042654984 -0.09281032 0.024788745
000340 04 3f 78 3c 72 5f 49 3c b8 ff cf 3d 20 8f 7e 3e
       0.015151743 0.012290822 0.10156196 0.24859285
000350 48 32 be 3c d1 04 88 bc 63 96 98 be b9 54 86 3c
       0.023217335 -0.01660386 -0.29802236 0.01639782
000360 45 7f 01 3e 17 75 bd b9 ac 69 ab bd 1c 38 cd 3b
       0.12646206 -0.00036136128 -0.08369765 0.0062627923
000370 26 0b b4 bd a8 80 25 be 5b 06 b1 bc 51 5d eb bd
       -0.08791189 -0.1616236 -0.021609476 -0.11492408
000380 d3 67 eb 3a cf 2b 96 bd a6 0a 78 3c ae 96 ce 3d
       0.0017960019 -0.073325746 0.015139258 0.100873336
000390 10 ab 00 3c f1 f4 06 ba bd b2 7b 3d 70 b9 c0 3d
       0.0078532845 -0.00051481934 0.061449755 0.094103694
0003a0 2b 2f dc bd b2 9a 4a be a9 13 fc 3d 6a 02 fe 3c
       -0.10751184 -0.19785574 0.123084374 0.03100701
0003b0 5a 4b 0b 3d e0 53 30 3d ab d8 44 3d e1 7b fa bb
       0.034007408 0.04304874 0.048058193 -0.007644162
0003c0 87 30 e4 bd 85 a7 74 3d 77 00 d9 bd 0b bf a5 bd
       -0.11142068 0.05973007 -0.10595792 -0.08093079
0003d0 22 d5 b5 3d c3 37 95 3c 32 61 46 3d 88 a7 5b be
       0.088785425 0.018215066 0.048432536 -0.21450627
0003e0 b5 b1 2b be 40 4c 3d 3d 7d 12 f4 bd a7 d7 52 bc
       -0.16767009 0.046215296 -0.11917589 -0.012868798
0003f0 45 d7 a1 bb e5 47 27 3e 12 0d eb bd e3 76 81 be
       -0.004938992 0.1633602 -0.11477102 -0.25286016

network_body._body_endoder.seq_layers.2.bias f4 [128]
000000 4d 24 08 3d 6c 26 48 bd 38 03 4a bd 81 20 3a 3d
       0.033237744 -0.048864767 -0.049319476 0.045441154
000010 13 9a 2c 3d d5 1e 4b bc 47 d7 0a 3d 35 49 46 bd
       0.042139124 -0.012397488 0.03389671 -0.04840966
000020 d5 57 70 bc 8a 7a 33 3c ad 3a 49 bd aa 14 8c bc
       -0.014669378 0.010954509 -0.049128223 -0.017099697
000030 5e e5 4f 3d 76 47 d2 bc b8 93 0f bc 84 b8 0f bd
       0.05075585 -0.02566884 -0.008763246 -0.035088077
000040 97 4b 58 3c e8 9b 06 bd 44 31 f5 3c ae 95 e5 3b
       0.013201616 -0.032863528 0.029930718 0.0070063686
000050 45 af fe 3c 2d 7f 85 3c a6 78 0d 3c 04 fc 13 bd
       0.031089434 0.016295994 0.008634722 -0.036129013
000060 c7 f4 2f bd f3 a2 28 3d 25 23 01 3c 17 de 8d 3d
       -0.042958047 0.041171025 0.007881914 0.06927126
000070 64 12 91 bc 9d a8 65 3d d0 f2 d6 bc 43 63 44 bd
       -0.017708965 0.056069005 -0.026238829 -0.047946226
000080 a1 bc 8e 3b 31 95 ed bc f7 12 36 bd 02 65 30 3c
       0.0043559824 -0.029001804 -0.04445168 0.01076627
000090 96 42 15 bd c7 23 ba bd ff 6c 0b 3c 55 a7 08 3d
       -0.036440454 -0.09088855 0.008509873 0.033362705
0000a0 9d 05 18 bd b3 5a 18 bc ee 20 e7 3c 35 7d f3 3c
       -0.03711473 -0.009298968 0.028213944 0.02972279
0000b0 81 9a 6d bd 56 40 07 bc d8 e9 9f bd 7b 0f 64 bd
       -0.058008675 -0.008255085 -0.07808274 -0.055678826
0000c0 b1 3f 15 ba dd 0f 1c 3c ed 7b e6 3c 25 17 4d bc
       -0.00056933897 0.0095252665 0.028135264 -0.012517725
0000d0 46 a9 4b bb 23 13 a9 bd 6e 6b 52 bd 23 0b 14 bc
       -0.0031076237 -0.08255603 -0.051371984 -0.009035858
0000e0 04 56 ca bc 89 0b df bc 0e a1 00 bd 92 28 35 3c
       -0.024699219 -0.02722718 -0.031403594 0.011057036
0000f0 52 6c fe bc 45 f7 20 3c 57 cf 8e 3c 20 bc 5e bc
       -0.03105751 0.009824579 0.017432852 -0.013594657
000100 fa 12 24 3b 20 04 8b 3c ee 1a fe bc 94 bc 29 bd
       0.0025035725 0.01696974 -0.0310187 -0.041439608
000110 35 56 35 bd 3f 67 92 bc 3b fd 11 bd af 87 13 bd
       -0.044271667 -0.017871497 -0.03564189 -0.03601807
000120 f2 c2 2d bd 6c d2 43 3d b1 3f a7 bc a8 b0 9f bc
       -0.042422242 0.047808096 -0.020416113 -0.019493416
000130 1c 6c 52 bc d2 da 11 bd 1a a1 00 3d 86 4e 12 bd
       -0.012843158 -0.035609074 0.03140364 -0.035719417
000140 20 c4 db bc 92 7b e4 bc 11 3f 47 bd 72 ac 14 3c
       -0.026826918 -0.027890954 -0.04864413 0.009074317
000150 d9 32 ab 39 ce 2a 3f 3c 2b 57 86 bc 7c 6f 59 bd
       0.00032653546 0.01166792 -0.016398987 -0.053084835
000160 f5 36 f1 bc 05 2b 18 3c 44 13 8b bc 5d f7 af 3c
       -0.02944515 0.0092876 -0.01697696 0.021480257
000170 33 14 1d 3d b5 8b 12 3d 46 6b 17 bb 1b ec 3b bd
       0.03834934 0.035777766 -0.0023104711 -0.045879465
000180 a1 2f e3 bc d8 d6 14 3c bf 21 e4 3c 21 b7 0a 3d
       -0.027732672 0.009084426 0.027848123 0.03386605
000190 61 a6 85 3c ca a6 f3 bc 09 24 33 bd 73 72 8f 3b
       0.016314687 -0.029742617 -0.043735538 0.004377657
0001a0 6d bf 6e 3d 09 0e 8e bb 10 e3 56 bc 3d 16 f9 3c
       0.058288027 -0.004335169 -0.013115659 0.030406112
0001b0 4d c3 d9 3c 67 3c fe 3a f6 f7 82 bc 4d f5 55 bc
       0.026582384 0.0019396663 -0.015987378 -0.013058973
0001c0 01 5f 9d bd 59 0a 87 bc d4 a8 a1 3b 07 f5 66 bd
       -0.07684136 -0.016484426 0.004933456 -0.05638602
0001d0 0f f8 78 bd e0 ce 92 3c a7 e3 c8 bc c8 73 95 bd
       -0.060783442 0.017920911 -0.024522616 -0.07297474
0001e0 69 21 a5 3d c5 56 a5 3a fe 74 ef 3c 18 08 c7 bc
       0.08063013 0.001261436 0.02923059 -0.024295852
0001f0 cf 88 d1 bc 69 0c 47 bc 00 5a 72 bd 5c 3e 25 bd
       -0.02557793 -0.012148955 -0.059167862 -0.040342674

action_model._discrete_distribution.branches.0.weight f4 [40, 128]
000000 bf e6 1a 3d b6 d6 ba bd 37 88 98 bd ee ac 74 3d
       0.037817713 -0.09122984 -0.07447856 0.05973523
000010 88 f0 2b 3d 98 86 04 be bc 49 2a 3d 82 68 20 3b
       0.041977435 -0.12941968 0.041574225 0.0024476354
000020 f3 6a ab bd 54 c3 8a bc 1c 21 d4 bb f1 d4 4d 3d
       -0.08370008 -0.016938843 -0.0064736735 0.050251905
000030 93 5f ba bd 3e bf a2 bc b5 60 0a bd 5b 12 9e 3b
       -0.091002606 -0.019866582 -0.033783633 0.0048239655
000040 33 93 61 bc b1 40 fd bd 6a a4 90 bd f2 9a 95 3d
       -0.013768005 -0.123658545 -0.070626095 0.07304944
000050 45 75 11 3d 09 85 7e bd 5a 67 b7 bd 58 39 19 be
       0.035512228 -0.06213859 -0.089552596 -0.14963281
000060 43 a0 d8 bb f1 99 d0 bb f3 08 62 39 33 cc 02 be
       -0.0066109016 -0.0063660075 0.00021556373 -0.12773208
000070 cb b9 96 3d f0 fa 86 bd ec df 96 3c f2 c8 61 3c
       0.07359656 -0.06590831 0.018417321 0.013780819
000080 45 86 c1 bd 09 a7 0e be fb 08 d8 bd cb 6e 2c bd
       -0.09449438 -0.13930906 -0.10548588 -0.042097848
000090 27 e6 e2 bb c1 a4 48 bd 0c 27 de bc 74 fc 1f bd
       -0.006924409 -0.048985247 -0.027118228 -0.039059117
0000a0 96 04 be bd 3e 9e 33 bd 3f cb ca bd 9a 87 ce 38
       -0.092782184 -0.043852083 -0.09902047 9.848103e-05
0000b0 5e f3 94 bd 27 31 8e bd 2c 08 53 3c cb cf a7 bd
       -0.07272981 -0.06942969 0.012880366 -0.0819393
0000c0 c2 6c fc bd fe b7 8c 3d f7 7e 9d bd 91 d0 b4 bd
       -0.123254314 0.06871031 -0.07690232 -0.088288434
0000d0 3e 5a 05 3e 9d 11 fd bc 3d 25 d4 bd 25 9d 48 bd
       0.13022706 -0.030892188 -0.10358665 -0.04897799
0000e0 fd 0d 23 3d 3a 19 5d bd 68 3b ae bd e1 8a bd 3d
       0.039808262 -0.053979136 -0.085074246 0.09255005
0000f0 56 39 d5 bd ea 6b db 3a a5 fa 3a bd 02 dc 78 bd
       -0.104113266 0.0016740535 -0.04564919 -0.06075669
000100 9b 30 b2 bd 52 da ba bd 64 5e b6 bd be 46 ef bd
       -0.08700677 -0.091236725 -0.08904722 -0.11683415
000110 e3 bc ff 3b c5 dd 8f bd 24 55 87 bd 78 9e d6 bd
       0.0078044995 -0.07024721 -0.06608036 -0.10479444
000120 52 fa 39 be c2 7f 67 3d 87 47 1d 3e b0 6d 0e 3a
       -0.18161896 0.056518324 0.15359317 0.0005433215
000130 35 43 a7 bd 1b 09 b3 bd a2 0d a6 bd 15 fc 34 bd
       -0.081671156 -0.08741971 -0.08108069 -0.044185717
000140 d7 fa b8 3d 00 c9 3f 3d d6 33 a9 bd 65 73 50 3d
       0.09032219 0.046822548 -0.0826184 0.0508913
000150 79 f0 8c bd 71 10 1d 3d 11 84 f3 bc 9a 08 48 bd
       -0.06881804 0.038345758 -0.02972606 -0.048836328
000160 76 e7 ae bc 01 05 39 bd b5 f0 aa bd 55 a5 86 3d
       -0.021350604 -0.045170788 -0.083466925 0.06574503
000170 ba d8 a6 bd e4 71 8d bc 1e 96 a6 bc 33 3e bd bd
       -0.08146806 -0.017266221 -0.020335253 -0.09240379
000180 a6 5c 9d 3b a5 4a 4d 3d 20 fa f9 bc c9 e8 ad 3b
       0.0048023043 0.050120015 -0.030514777 0.005307291
000190 e2 c0 48 bc cc 83 a7 bd 58 03 67 3d 6e ad bf bd
       -0.012253018 -0.08179435 0.056399673 -0.09359251
0001a0 9b 1b 2a be 2a b1 22 bb a3 d5 35 bd 3f d5 1f be
       -0.16612093 -0.0024824836 -0.044393193 -0.1560869
0001b0 8c 76 be bc be cd 0c 3e 67 79 b3 bc a3 70 10 3c
       -0.023249887 0.1375036 -0.021908475 0.008815917
0001c0 11 8d 3a bd 57 00 ca 3c 74 1f 9f 3c f3 ef c5 bd
       -0.045544688 0.024658365 0.019424178 -0.09664907
0001d0 36 d4 ac bd b6 78 09 bd 09 25 d8 bd 90 f2 6b 3d
       -0.084389135 -0.033562385 -0.10553939 0.057604373
0001e0 07 c1 b7 3c 1b 24 d4 3d 85 fa a9 3d 1b d3 ab bd
       0.02243091 0.10358449 0.08299736 -0.083898745
0001f0 1e 31 0d bd 67 aa 6d 3c 41 fb 57 bc 4e 3c 0f be
       -0.03447067 0.014505959 -0.013182462 -0.13987848
000200 9c 49 93 3d f2 9e fe 3c 28 39 67 3d 3a 18 11 bc
       0.07191774 0.03108165 0.056450993 -0.008855874
000210 00 2f 62 3d 64 d3 0c 3c b1 88 af 3d 9f 1d 9c 3d
       0.055220604 0.008595321 0.08570994 0.07622837
000220 61 ff 79 3d fa 84 0a bd 97 ea 12 3c 9c 6e 4c 3c
       0.061034564 -0.033818223 0.008967063 0.012477543
000230 c8 9e e1 3d 49 30 24 3d 86 be 1f 3d 98 7e 01 3d
       0.11016613 0.04008511 0.039000057 0.03161487
000240 92 8a d7 bd 33 2a b8 3d 90 d5 a2 bd 09 99 e9 bb
       -0.10524477 0.08992424 -0.0795089 -0.007128839
000250 03 47 6e bd 2a 11 aa 3d 22 c6 30 3c dd 8b d7 3c
       -0.05817319 0.08304055 0.010789426 0.02631181
000260 69 ce b2 3c 7d 92 bb bc 7d 2b 31 3c e6 fa b9 3d
       0.02182694 -0.022897 0.010813591 0.09081058
000270 ef f1 f1 bd d8 eb b4 3d bf 6c 96 bd c3 89 2d bc
       -0.11813723 0.08834046 -0.073449604 -0.010591927
000280 4b c7 af 3d 77 af a4 bc 8a 9b e9 3c 2e a9 54 bd
       0.08582934 -0.0201032 0.02851655 -0.051919155
000290 f0 ef be bb 7e 81 90 3d b9 ee 25 3d e6 b1 09 3c
       -0.0058269426 0.07055949 0.040510867 0.008404231
0002a0 94 4a 8f bb 57 a4 03 be b8 e3 02 3e a6 d7 3d 3c
       -0.004372904 -0.1285566 0.1278218 0.011587059
0002b0 22 99 19 bc 9f a2 ad bc 62 f0 ac 3c fb b4 dd bb
       -0.009374889 -0.021195708 0.021110717 -0.0067659593
0002c0 9e 25 ae 3c 1c ec f4 bb 7a 13 45 3d ef 52 3c bd
       0.021258172 -0.0074744355 0.048114277 -0.04597753
0002d0 d3 13 0d 3d 08 7f a2 3d 3a b3 9e bb 46 cc 46 bd
       0.034442734 0.079343855 -0.004843143 -0.048534654
0002e0 c3 72 12 bd 0f d0 14 3d ac 8e 68 3d 6c 70 ac 3d
       -0.035753977 0.036331233 0.056776688 0.0841988
0002f0 b5 b6 a1 3d 0a 43 b8 3c 37 9a 94 bd 2c 95 62 bd
       0.07896177 0.022492904 -0.07255977 -0.055318043
000300 a9 3e 9e 3c f5 21 9f 3c 46 b8 e7 3c 81 f8 67 3d
       0.019316988 0.019425372 0.02828611 0.056633476
000310 af 9f 66 bd 9f ac 09 3d e6 f9 39 3d f3 74 d7 bb
       -0.05630463 0.03361189 0.045404337 -0.0065752207
000320 1e 2c 2a 3c 51 00 ae 3d 08 01 84 bd 13 f5 89 bd
       0.010386495 0.08496154 -0.06445509 -0.06736197
000330 3f 7b 9c bd bf d7 42 bc b1 2d 65 bb ce c2 79 3d
       -0.07640695 -0.011892258 -0.003496986 0.060976796
000340 9a c2 50 3c fc d1 b1 bc 53 62 aa 3d 0a fd 83 bc
       0.012741709 -0.021706574 0.08319535 -0.01611187
000350 0c f5 7f 3d ca 7d b7 bd 85 07 b3 bc ee 36 39 3d
       0.062489554 -0.08959539 -0.021854172 0.0452184
000360 55 22 5e 3d 74 f2 a5 3c a7 9f e1 3d 18 14 9f bd
       0.05423196 0.020257212 0.110167794 -0.077675045
000370 95 d2 82 3d 95 f0 16 3e c1 35 aa bb 14 60 78 bd
       0.063878216 0.14740212 -0.0051943962 -0.060638502
000380 c8 4c b1 3c 59 66 2d bd d8 15 b6 bd a8 7d 4c 3d
       0.021643057 -0.042333934 -0.08890885 0.049924523
000390 00 43 91 bd 16 5b d6 bd c9 56 b4 3d a0 a9 84 bc
       -0.07092857 -0.10466592 0.088056155 -0.016194165
0003a0 b4 50 37 bc c7 55 cd 3c ef b3 90 3d 89 43 0d 3d
       -0.011188675 0.025065316 0.070655696 0.034488235
0003b0 e6 6e 8d bc 6e 0f 3a 3d ac f8 0f 3e 28 87 06 be
       -0.017264795 0.04542487 0.14059705 -0.13137496
0003c0 b6 f8 21 3d 8a bc bc bd 66 62 6c bd 03 cb 7e 3d
       0.03954383 -0.092156485 -0.057711028 0.062205326
0003d0 59 2f 8d bd 73 fe 90 bc c7 8d 19 bd 3f f6 1d bd
       -0.068937965 -0.017699456 -0.037488725 -0.038564917
0003e0 94 df 9e 3c 4a a3 fd 3d 09 cf ad 3d 97 84 76 3b
       0.01939372 0.123846605 0.084867544 0.003761565
0003f0 26 88 56 bd ca 02 3a 3d b6 93 8e 3d 70 ae d9 ba
       -0.052375935 0.045412816 0.069617674 -0.0016607773

action_model._discrete_distribution.branches.0.bias f4 [40]
000000 e8 4e cb 3d 25 83 ff bc 92 72 9f 3c 27 0b 31 bd
       0.099271595 -0.031190464 0.019463811 -0.043223526
000010 50 b9 a4 3d ae 19 bc ba 5c 3b cd bd ff d3 75 bd
       0.08043158 -0.0014350915 -0.100210875 -0.06001663
000020 16 c4 64 3d 57 8d c2 bd de 21 af bb 5c a9 07 bd
       0.055851065 -0.09499615 -0.0053446135 -0.033120498
000030 eb 35 36 bd 83 1d a3 3c 31 41 b0 bd 89 cd 94 bd
       -0.044485014 0.019911533 -0.08606184 -0.07265765
000040 22 9f bd bc f6 64 06 3d 89 59 13 bd 1d ab db 3d
       -0.02314717 0.032811128 -0.03597406 0.10725997
000050 94 4b 12 3d 4f 25 a5 3c 95 c3 5c 3c 39 73 86 bc
       0.03571661 0.020159392 0.013474365 -0.016412364
000060 43 41 93 bd de f7 c1 3d e4 2f 8a 3b be b7 9b bd
       -0.07190182 0.09471105 0.004217135 -0.076034054
000070 34 a7 15 bd ee 83 ab 3d 59 6c a5 3c fb 06 cc 3c
       -0.03653641 0.08374773 0.020193266 0.024905672
000080 b8 ec f3 bc 9a 1f 80 3d 6d 0f 1e 3d 18 71 66 3d
       -0.029775962 0.062560275 0.03858893 0.0562602
000090 99 41 5c 3d f6 17 a5 3d ca f5 53 3d d8 52 a4 bd
       0.053773496 0.08061211 0.051748075 -0.08023614

action_model._discrete_distribution.branches.1.weight f4 [30, 128]
000000 65 e1 5d bd 48 14 b9 3d 4e b8 e3 3d fc c1 71 3d
       -0.05417003 0.090370715 0.11119138 0.05902289
000010 9a 69 8a 3d 99 0d 46 3d c7 1f 2e 3d 63 ca 91 3d
       0.06758423 0.04835281 0.042510774 0.0711868
000020 76 fd aa 3d 2d 6e a8 3d fa d0 3d 3e 09 9f 09 3e
       0.08349125 0.08224139 0.1853675 0.13439573
000030 bf 92 6e 3d 67 e8 8a 3d 54 b5 a0 3d ca 08 60 3c
       0.058245417 0.067826085 0.078470856 0.0136739705
000040 a1 65 19 3d 7a 88 0c 3e 33 6c 41 3d 93 f5 c9 bc
       0.037450437 0.13723937 0.047222327 -0.024653232
000050 96 c3 af 3d 64 94 e7 3d 8a 2c f5 bb 5d 75 1b 3d
       0.08582227 0.113076 -0.007482116 0.037953723
000060 4c 6e fa 3d 9e 3b fa 3c 25 e9 bd 3d 2d bc cb 3d
       0.12228069 0.030546006 0.092729844 0.09948001
000070 62 94 a9 bd a9 02 06 3d f2 7f 44 bd 1a 05 89 bc
       -0.08280255 0.03271738 -0.04797358 -0.016726065
000080 f7 d3 44 3e 5d eb 8b bc 27 f3 12 3d 47 fd 60 bc
       0.19221483 -0.017080003 0.03587642 -0.013732261
000090 86 21 88 3d a0 5c 02 3e db 98 f2 3d f9 b8 b5 3d
       0.06647019 0.12730646 0.11845561 0.08873171
0000a0 2d 08 96 3d 27 99 a1 bd d1 66 20 3d 66 c5 12 3e
       0.07325778 -0.078905396 0.039160553 0.14333114
0000b0 bb d8 6f 3d 65 8e a0 bd 52 e2 eb 3c eb fc bc 3d
       0.0585563 -0.078396596 0.028794441 0.09227928
0000c0 26 78 cc 3d ee c8 8a 3b 5c 97 1f 3e b7 69 af bd
       0.09983854 0.0042353785 0.15585083 -0.085650854
0000d0 ca 0d 9b 3d 09 cf 0c 3e 2b a7 44 3e dc e0 b7 bd
       0.075709894 0.13750853 0.19204395 -0.089784354
0000e0 94 e4 87 3d a0 8d 9b 3d 81 46 ac 39 c3 70 a2 bd
       0.06635395 0.07595372 0.00032858926 -0.07931664
0000f0 3f bc 82 bc fb 5b f0 3d 56 4e 13 3d 04 e5 26 3d
       -0.015958903 0.11736294 0.03596338 0.04074575
000100 97 ca 41 3e 94 92 11 3d 2f 34 f7 3d 54 42 75 bc
       0.18924938 0.03554018 0.120705 -0.014969427
000110 c9 35 fd bb 54 b2 0b 3e ee 1b 94 3d 4d 56 f7 3d
       -0.007727359 0.13642246 0.0723189 0.120770074
000120 71 95 e3 3c d0 fc 14 3d 23 a6 10 3e 2e 96 30 3d
       0.02778122 0.036373913 0.14125876 0.043111973
000130 eb cf a6 3d 51 d1 34 3d ef d9 c9 3d 22 ee d3 3c
       0.08145126 0.044144932 0.09856021 0.025870387
000140 95 13 34 bc 1c 6d 73 3c 28 52 de 3b 54 f0 e3 3c
       -0.010990997 0.014857557 0.006784696 0.027824558
000150 d4 c6 19 3e 7e 57 39 bd b3 32 e5 3d 48 1b d2 3d
       0.15017253 -0.045249455 0.11191311 0.1025911
000160 2e 92 25 3e 61 1c 14 3d 81 01 cd 3d 92 e6 82 bc
       0.16169044 0.036159877 0.100100525 -0.015979085
000170 7e 51 2f bc c2 0f 30 bd c6 1d 47 3d f1 49 15 3e
       -0.010700582 -0.042983778 0.04861238 0.14578988
000180 00 21 fe 3d 55 80 3e 3d e2 fb 8d bc 4f 64 03 3c
       0.12408638 0.046509106 -0.017332021 0.008019521
000190 8e 10 48 3d 5e 4b 82 3a 6a 79 17 3c ac 00 9a 3d
       0.048843913 0.0009940674 0.009245256 0.075196594
0001a0 c6 6a de bc ae b1 9b bd 2d 38 4e 3d c2 6e 4f 3d
       -0.027150523 -0.07602249 0.050346542 0.050642736
0001b0 47 b4 bb 3b 26 2f b2 bd b7 79 a9 3d 57 b5 7d 3c
       0.005728278 -0.08700399 0.082751684 0.015485129
0001c0 36 8d 8f 3c 62 6d 6a bd e8 48 db 3c 1d ff cc 3d
       0.01752339 -0.05723322 0.026768163 0.100095965
0001d0 21 4f b3 bd ae 3d e3 3d 5a 0b b6 3d 68 2b f3 3d
       -0.08755327 0.11095749 0.08888884 0.118735135
0001e0 e4 f6 fa 3c c1 f2 17 3e 95 2c 1c 3d 2d 2d 03 3d
       0.030635305 0.14838697 0.038128454 0.032025505
0001f0 77 b7 95 3d 56 52 f5 bd 15 82 f4 3d de 74 a2 3d
       0.07310384 -0.11978595 0.11938874 0.07932447
000200 5e a7 ac ba d8 5e db 3c 4e 1b 6e 3d c3 03 e0 bd
       -0.0013172438 0.026778623 0.05813151 -0.109382175
000210 0b 0f 54 3e ea 71 29 3e 18 89 66 bd 2f 6d 92 3d
       0.20708863 0.16547361 -0.056283087 0.07149731
000220 68 61 77 bc 23 4a 9d bd 3d 0f 15 bb ee d3 a6 3d
       -0.015098907 -0.07680156 -0.0022744678 0.08145891
000230 e8 de 04 be 90 bd 0b 3d 1d 9e 1b 3d d8 32 c0 3d
       -0.12975657 0.034116328 0.037992585 0.09384698
000240 2d 0d 41 3c 6e b1 c1 3d 43 9c c5 3a 03 9e 67 bd
       0.0117829265 0.0945767 0.0015076477 -0.056547176
000250 27 2a de 3d 37 94 b0 3d 42 70 ed 3c b3 a5 12 bc
       0.10847884 0.0862202 0.028984193 -0.008950639
000260 0d f1 d9 3d 94 bb 28 bd 12 b5 81 bd 4f 64 29 3e
       0.1064168 -0.041194513 -0.063333645 0.16542171
000270 62 c5 00 3d fd 09 c9 3d 7e 3e 1d bd 7e e9 0e 3d
       0.03143824 0.09816358 -0.038389675 0.034890644
000280 63 70 82 3d fd 5c 67 3d a3 a1 e8 3b 46 d6 70 3c
       0.06369092 0.056485165 0.0070993467 0.014699524
000290 b3 c5 b5 3d 6a 49 5c 3d 1b 2f e7 3d eb ee 09 3e
       0.08875599 0.05378095 0.112882815 0.13470046
0002a0 1c 20 d2 3c 5f 54 7b bc 1c aa e9 bc 7c 56 5c 3d
       0.025650077 -0.01533994 -0.028523497 0.053793415
0002b0 66 5e e3 3c 38 78 9e bc 2f 6a 53 3d 62 c7 59 3d
       0.027754974 -0.019344434 0.051614936 0.053168662
0002c0 af 2b b1 3d 33 87 99 3d 45 0f 04 bc 38 7a b2 bc
       0.0865091 0.0749649 -0.008060281 -0.021786794
0002d0 e0 12 27 3c d1 88 0c 3d c5 48 cf 3c f0 54 04 bd
       0.010197371 0.034310166 0.025303254 -0.032307565
0002e0 dc 82 b2 bc bd 7a ce 3d 4c 4a a0 bd 54 30 eb bc
       -0.021790914 0.10082004 -0.07826671 -0.028709568
0002f0 12 f8 6d bd 89 fc 31 3d c1 35 8a bc 13 c7 84 bd
       -0.058097906 0.043453727 -0.016871335 -0.06483283
000300 35 d9 e9 3d c5 ae 95 bc 3b cd 05 3e b3 0e 65 bd
       0.11418382 -0.018271813 0.1306657 -0.05592222
000310 e1 95 37 bd 12 d7 ab 3d c8 51 39 ba 93 32 2b 3d
       -0.04482067 0.08390631 -0.00070693763 0.04179628
000320 fb 62 c5 3d ce 14 a0 3c 4f 91 3f 3d 0f 31 9a bc
       0.0963802 0.01954117 0.046769436 -0.018822221
000330 b0 ae 0a bd b6 56 4c 3d b7 99 ec 3b ef 81 c8 bd
       -0.033858 0.04988738 0.0072204727 -0.09790408
000340 aa 21 75 bd e1 7e 21 3d 08 94 6b 3d 57 41 62 3d
       -0.059846558 0.03942764 0.05751422 0.055238094
000350 01 a9 74 3d 22 97 e4 3c e7 77 2f 3c 9f cc c0 bb
       0.059731487 0.027904097 0.010709739 -0.0058837677
000360 37 ea 1f 3d ee 83 04 be ec 03 42 bd 83 fa 95 bd
       0.039041724 -0.12940952 -0.04736702 -0.07323172
000370 c4 39 7b bc dd 9a cf bb bf d1 21 bd e7 d5 8d 3d
       -0.015333597 -0.0063356 -0.03950667 0.06925564
000380 2c 2a b2 bc 62 40 bf 3b 1f b7 11 be f6 8c 27 3d
       -0.021748625 0.0058365325 -0.14230011 0.040905915
000390 40 ff 06 3d cf dd e2 b9 9d 02 2b 3b 38 d5 cb 3c
       0.03295827 -0.0004327134 0.0026094087 0.024881944
0003a0 ab af df bb ed d2 c2 3d 57 7e 62 3c be a6 dd 3d
       -0.006826361 0.09512887 0.013824067 0.10822819
0003b0 53 c2 de 3d 7f e6 87 3d 25 9d 0f 3d 2b 6d e9 3c
       0.10876908 0.066357605 0.035061974 0.028494438
0003c0 98 cc 1a bd 2d 12 86 3d 9c ff 96 bd 1f 57 94 bb
       -0.037792772 0.065464355 -0.07372972 -0.004526987
0003d0 57 1f a9 bd eb 4d 9d 3c 3a cc 90 3d 9d ed 23 3d
       -0.08257931 0.019202193 0.07070203 0.040021528
0003e0 d7 16 50 bd 21 3c fe bb 81 4a f4 3c de 0b fb 3c
       -0.05080303 -0.007758633 0.029820682 0.030645307
0003f0 f5 a2 e4 3c e5 79 ca bc 5a 48 46 3d fe d7 ba 3d
       0.027909735 -0.024716327 0.048408844 0.091232285

action_model._discrete_distribution.branches.1.bias f4 [30]
000000 c6 b1 e6 bd 10 b9 25 bd ca 07 72 bd f1 1b 06 3b
       -0.11264376 -0.040459692 -0.05908946 0.0020463432
000010 fd c5 6a bd 1c 4d 45 3c 37 d5 00 be 77 9a b8 3d
       -0.057317723 0.01204231 -0.12581335 0.09013837
000020 4b 63 20 3d c7 09 e8 3d 61 f1 e3 3d 2d 06 d5 3d
       0.039157193 0.1132999 0.11130024 0.104015686
000030 8a 5a c2 bc 42 81 73 3d 8d 55 96 3c c8 59 8e 3d
       -0.023724813 0.05944944 0.01835134 0.06950718
000040 d3 02 66 3d ad 9e 85 bb fa fd e2 ba 71 60 4c 3d
       0.056155037 -0.0040777535 -0.0017318123 0.04989666
000050 88 9a 06 bd f0 3b 83 bd 8b 04 39 b9 c6 c7 07 3d
       -0.032862216 -0.064079165 -0.00017644667 0.033149503
000060 14 46 d0 3d f5 0f 2c bd ed 3f 6a bd 4b 32 cb bc
       0.10169616 -0.042007405 -0.05718987 -0.024804255
000070 f9 1b 94 bd 0f 3d e3 ba
       -0.07231898 -0.0017336922

exp_avg f4 [128, 8]
000000 08 6f 13 bc 57 9d 9c 3c 7f 03 60 2e 21 8c 55 3a
       -0.00899864 0.019117994 5.093481e-11 0.0008146186
000010 70 ff e4 1b 2a f5 5f 2e 9a 2c 62 36 9d 52 e7 32
       3.7884509e-22 5.092208e-11 3.3702586e-06 2.6929508e-08
000020 a8 74 83 bb 98 8b a4 3b de d8 49 2d 58 7a 93 39
       -0.0040117092 0.0050215237 1.1473681e-11 0.00028129178
000030 6d 87 8c 1b 88 a6 49 2d fe 1a 30 b8 26 37 8f 36
       2.3248574e-22 1.14625046e-11 -4.198681e-05 4.268152e-06
000040 9f 03 0e 39 6e ca 93 b9 d3 f5 b5 2c f2 d9 38 b7
       0.00013543524 -0.00028188847 5.1716214e-12 -1.1017999e-05
000050 6c fe 12 19 fe f6 b5 2c 70 f9 92 28 97 58 99 a8
       7.599403e-24 5.171751e-12 1.6317432e-14 -1.7024832e-14
000060 e7 e8 29 ba 95 6e b1 3a 61 ba f6 ad 8a b5 6f 38
       -0.00064815435 0.0013536984 -2.8049731e-11 5.7151112e-05
000070 20 d6 8b 99 3e bb f6 ad 04 8a 41 31 02 5a 75 af
       -1.4458748e-23 -2.8050114e-11 2.816365e-09 -2.2314597e-10
000080 80 d3 d5 3b ee f9 50 bc 13 36 71 30 8a 76 06 ba
       0.006525457 -0.0127549 8.7752133e-10 -0.0005129358
000090 82 7a 02 1c bb 35 71 30 a1 6e 3b 37 9b 19 11 b5
       4.317173e-22 8.7751645e-10 1.1171826e-05 -5.405397e-07
0000a0 a5 e6 56 3c 7c 9a e0 bc 12 1a 60 ae 7b 3d 9b ba
       0.013116513 -0.027417414 -5.095486e-11 -0.0011843884
0000b0 a2 d7 d2 1a 3d 00 60 ae 9c 14 d8 2c d7 55 94 28
       8.720234e-23 -5.0931915e-11 6.1413773e-12 1.6468528e-14
0000c0 36 21 33 ba fe 33 a7 3a 87 47 16 30 09 05 dc 38
       -0.0006833257 0.0012756584 5.467133e-10 0.00010491355
0000d0 55 05 61 1d 6d 45 16 30 4f ab 96 b5 3c 7b 9e 35
       2.9781259e-21 5.466834e-10 -1.1225728e-06 1.1807783e-06
0000e0 1b 4a b5 b9 c9 5d 85 3a 8c 97 d5 2d 06 3d 1e 38
       -0.00034578223 0.0010175045 2.4282597e-11 3.7726968e-05
0000f0 ae 69 94 9b 19 97 d5 2d 2b df 5b 36 f8 4b 94 34
       -2.455284e-22 2.4282397e-11 3.2763444e-06 2.7622423e-07
000100 d4 60 97 3b fd 0e 1e bc 3b 43 f0 2f 43 c5 d5 b9
       0.004619697 -0.009647128 4.3703516e-10 -0.00040773497
000110 e2 45 a0 1b ac 43 f0 2f f1 15 88 22 39 95 f1 a0
       2.651494e-22 4.370383e-10 3.6886105e-18 -4.0925735e-19
000120 8d 7c 50 bc 05 45 e1 3c 01 b4 91 b0 d1 5e 90 3a
       -0.012725008 0.027498731 -1.0601299e-09 0.0011014586
000130 85 46 87 9c 49 b4 91 b0 b4 4f 46 37 da 12 d2 34
       -8.951779e-22 -1.0601379e-09 1.1820277e-05 3.9129264e-07
000140 b6 08 6a bc 58 53 ff 3c c9 9d 93 b0 35 e2 a6 3a
       -0.014284303 0.031167671 -1.0740503e-09 0.001273221
000150 e7 3e 07 1c 3c 9e 93 b0 65 ad 92 37 da c6 01 b4
       4.474905e-22 -1.0740631e-09 1.74853e-05 -1.2086403e-07
000160 a6 4e 7d b7 49 2a 04 38 ae e1 5a ac 9e 0b aa 35
       -1.5098287e-05 3.1510634e-05 -3.110494e-12 1.2669368e-06
000170 66 01 f2 99 d1 e1 5a ac 55 0e 35 30 2f 40 64 ae
       -2.5022778e-23 -3.1105017e-12 6.5867783e-10 -5.1898204e-11
000180 d4 07 b0 3a 40 01 3b bb a3 b3 2c 30 f1 da 31 b9
       0.0013430067 -0.002853468 6.2828515e-10 -0.00016961597
000190 d6 09 cd 1b 61 b4 2c 30 35 28 e0 32 da 62 d7 b0
       3.3920761e-22 6.282957e-10 2.6095316e-08 -1.5671404e-09
0001a0 2c ce 14 38 71 10 8e b7 d7 92 75 ae a0 c6 80 b5
       3.5477962e-05 -1.6935375e-05 -5.583697e-11 -9.594551e-07
0001b0 cb be ad 18 35 93 75 ae 1b 31 39 35 c6 3f d4 b2
       4.4912104e-24 -5.5837297e-11 6.898933e-07 -2.4709049e-08
0001c0 b8 0e 41 3a e8 e1 9c 38 72 1b b3 ad d5 2a 52 b7
       0.0007364559 7.480738e-05 -2.0362132e-11 -1.2526948e-05
0001d0 e6 dc bb 1a 01 1d b3 ad fe 23 a0 37 c0 41 81 b5
       7.769827e-23 -2.0362824e-11 1.9090246e-05 -9.630385e-07
0001e0 ce 02 e6 ba c2 bf 6d 3b 56 95 29 af d1 82 f7 38
       -0.0017548443 0.0036277627 -1.5423515e-10 0.00011802244
0001f0 d1 e4 2a 9b 5c 92 29 af 53 51 2a 30 07 a0 c0 2c
       -1.4136005e-22 -1.5422458e-10 6.196121e-10 5.474735e-12
000200 eb 21 2c b9 b2 f9 bb 39 97 36 0b 2d cf aa 82 37
       -0.00016415834 0.00035853457 7.913357e-12 1.5576747e-05
000210 33 b7 16 9b 2a 34 0b 2d 5a 64 3d 34 ea 56 0e b1
       -1.2466904e-22 7.912818e-12 1.7638504e-07 -2.0713125e-09
000220 ef 56 f5 b8 ae 93 7f 39 51 eb b9 ae c8 cc 23 37
       -0.00011698703 0.0002437371 -8.4546266e-11 9.763236e-06
000230 25 e4 4b 9a 29 eb b9 ae 0b c5 2a 2b e2 c9 ec a8
       -4.216371e-23 -8.454599e-11 6.0669585e-13 -2.6288816e-14
000240 76 89 a7 3b 1b 04 30 bc 37 bd 32 30 9e 55 db b9
       0.005112822 -0.010743166 6.5024913e-10 -0.00041834725
000250 6e 0b 46 9b 6c bd 32 30 92 b7 36 b6 0d ec 01 36
       -1.6381869e-22 6.502521e-10 -2.7226965e-06 1.9359898e-06
000260 86 fa 1d 3b 57 b9 a4 bb 1e 95 8e ad f7 e0 57 b9
       0.0024105622 -0.005026977 -1.6209752e-11 -0.00020587804
000270 34 58 1c 1b 49 90 8e ad af 70 ad 2f 5e 8f 29 ae
       1.2932518e-22 -1.6207606e-11 3.1548583e-10 -3.8553487e-11
000280 fa 0b c7 39 51 d0 0f 3a 14 ec 2f 2e 56 37 3c 37
       0.0003796516 0.00054860587 4.0000073e-11 1.1218557e-05
000290 97 18 bb 9a 91 eb 2f 2e f5 dd 91 37 9f 56 c4 35
       -7.7381114e-23 3.9999618e-11 1.7388704e-05 1.4628348e-06
0002a0 c2 aa 1e 3b 92 9c a3 bb eb 13 60 2d 66 05 35 b9
       0.0024210666 -0.00499303 1.27373485e-11 -0.00017263516
0002b0 32 27 33 1c a6 ea 5f 2d 5d 89 8c b4 38 4c c9 35
       5.927679e-22 1.2728185e-11 -2.6176977e-07 1.499785e-06
0002c0 5a ee a5 ba 5c 51 2a 3b f4 1b 16 b0 ef 60 8c 38
       -0.0012659535 0.0025988435 -5.4609406e-10 6.6937755e-05
0002d0 01 df aa 9a 22 1b 16 b0 6e dc 08 2e b6 bd 03 2c
       -7.0670634e-23 -5.460824e-10 3.11186e-11 1.872153e-12
0002e0 5b 7a 7e 3a 53 03 07 bb 4a d3 9c b0 c3 c0 f8 b8
       0.00097075634 -0.0020601347 -1.1410546e-09 -0.00011861466
0002f0 55 5b 10 9d b0 d2 9c b0 d2 29 28 2c b0 5e ab 28
       -1.9105459e-21 -1.1410375e-09 2.389745e-12 1.9025878e-14
000300 7f 5e 99 bb 90 cf 5f 3c 60 a3 9d b0 01 c4 fe 39
       -0.0046804543 0.013660327 -1.1469687e-09 0.0004859269
000310 eb 81 7f 9d 2e a3 9d b0 e7 f9 43 38 1b f4 2b b6
       -3.3816135e-21 -1.1469632e-09 4.6724363e-05 -2.5623074e-06
000320 1e 9c 7a 3c 71 97 02 bd bc ce 58 30 aa 92 ad ba
       0.01529601 -0.031882707 7.887413e-10 -0.0013242562
000330 70 9a 0e 1b fd cf 58 30 08 54 98 b4 a1 79 08 35
       1.1795866e-22 7.887591e-10 -2.8373347e-07 5.084094e-07
000340 61 ba 1f b5 08 2c cb 35 35 54 3a a9 c0 5a 75 33
       -5.950333e-07 1.5137493e-06 -4.1373334e-14 5.7126044e-08
000350 27 ae 2b 98 ee 54 3a a9 41 dc 7e 31 d0 68 bc af
       -2.2189156e-24 -4.137396e-14 3.7087065e-09 -3.4271475e-10
000360 66 df 15 bb fd 16 c7 3b 81 1f 11 af 9b 4d 6b 39
       -0.0022868752 0.0060757385 -1.3198866e-10 0.00022440257
000370 7f dc 39 9c 4a 1e 11 af 74 86 81 37 41 40 18 b5
       -6.149635e-22 -1.3198434e-10 1.5440608e-05 -5.6717914e-07
000380 7f 0f 94 3a cf d1 1c bb f9 1a 95 b0 71 30 0c b9
       0.0011296122 -0.0023928767 -1.0848843e-09 -0.00013369486
000390 7a be 45 9c 52 1a 95 b0 38 3d 1b 30 99 4d 3a ae
       -6.5428017e-22 -1.0848658e-09 5.647567e-10 -4.2360424e-11
0003a0 01 39 94 ba 1a e6 b2 3a b8 fe ac ae d3 c7 83 38
       -0.0011308492 0.0013648898 -7.8669016e-11 6.283787e-05
0003b0 53 33 ae 1b 86 fe ac ae 6f aa 4a b7 11 79 1a 34
       2.8819053e-22 -7.866867e-11 -1.207982e-05 1.4386411e-07
0003c0 28 eb 62 b8 a6 64 ec 38 42 f3 cd 2d ee 97 97 36
       -5.4101605e-05 0.00011272104 2.341383e-11 4.5178376e-06
0003d0 44 80 b0 1a 85 f3 cd 2d 2f 4c d6 ab 72 5a cf 29
       7.299912e-23 2.3413946e-11 -1.522676e-12 9.2083364e-14
0003e0 e3 f0 e5 38 ad d1 ac 38 4f cd ba ab 8f 80 b3 33
       0.000109644396 8.240654e-05 -1.327308e-12 8.358722e-08
0003f0 cf 15 8c 1a 59 cd ba ab 64 56 79 36 d5 61 2e 31
       5.7937877e-23 -1.327309e-12 3.7154177e-06 2.5375944e-09
