results/CityAgent/CityAgent/CityAgent-282013.onnx (onnx, 110884 bytes, 9 tensors)

discrete_act_size_vector f4 [1, 2]
000000 00 00 20 42 00 00 f0 41
       40.0 30.0

network_body._body_endoder.seq_layers.0.weight f4 [128, 8]
000000 b3 af 7c be 98 17 ac 3e 45 66 2b 3f e6 78 60 bd
       -0.24676399 0.3361175 0.66952926 -0.054802798
000010 bd a2 04 bd 48 9e 07 be c5 02 9f 3e 9c 32 94 be
       -0.03238176 -0.13243973 0.310568 -0.28944862
000020 c8 86 b5 3d de 05 85 3d e0 e3 0f bf fc 59 86 bf
       0.08863598 0.0649526 -0.56207085 -1.0496211
000030 83 7b 72 3f 68 2c ef 3d 4f ff 61 be 63 5e fd 3e
       0.94719714 0.11678392 -0.22070049 0.49486074
000040 82 f5 e8 be bd bd e8 be 20 47 a3 3e 08 70 18 be
       -0.45499808 -0.4545726 0.31890202 -0.14886487
000050 de a4 fb 3b 00 f3 15 be b7 50 82 be 77 63 5c 3e
       0.007679566 -0.14643478 -0.25452206 0.21522318
000060 ce 72 87 be 16 c6 6a be 18 43 05 bf 7f 5d ab be
       -0.26454777 -0.22927126 -0.520555 -0.3346977
000070 c4 ae 16 bf f7 2f b1 bb 8f 68 0e bf 8f 58 5f be
       -0.5886042 -0.005407329 -0.55628294 -0.21811126
000080 10 a2 d9 3d af 3f 81 3e 12 0b 87 be a8 4f bd be
       0.10626614 0.252439 -0.26375633 -0.36974835
000090 6e 27 34 3f 6e 18 fa 3d 3c 11 7d 3f aa 84 7f 3e
       0.70372665 0.12211691 0.9885442 0.24952951
0000a0 7c 5c 01 bf f0 e3 45 be 49 e5 69 3e c4 74 22 3f
       -0.50531745 -0.19325233 0.22841372 0.6345942
0000b0 e1 15 e3 be 50 dc 7d bd 7a 93 5b 3f 18 85 e9 be
       -0.4435263 -0.061977684 0.85771906 -0.45609355
0000c0 51 0b 4f 3c b4 66 1e 3e 4d 9c de bd 32 52 d4 bd
       0.012636975 0.15468866 -0.10869656 -0.1036724
0000d0 47 90 d2 bd 21 dc 15 be 30 a6 86 3e 52 b7 8a be
       -0.10281425 -0.14634754 0.26298666 -0.27092987
0000e0 59 eb fa 3c f7 25 48 bd 86 a3 89 be 78 7a f6 be
       0.0306298 -0.04886433 -0.2688257 -0.4814031
0000f0 52 ee d3 3e ef 99 86 be e2 6c 6e bd 9e 98 40 3d
       0.4139276 -0.26289317 -0.058209307 0.047020547
000100 02 73 78 bf 45 e0 7f be 25 b8 a2 3d 11 94 de be
       -0.9705049 -0.24987896 0.07945279 -0.4347234
000110 bc 51 1e be ed 51 d1 3e 58 b4 79 be 03 68 b2 be
       -0.15460867 0.40882817 -0.24385202 -0.3484498
000120 6f 43 35 be 27 af 8f 3e 59 ef da be 9e ce 1b bf
       -0.17701505 0.28063318 -0.42760733 -0.6086215
000130 fb 3b 05 bf e9 83 b9 3e 3e 40 46 bf 1c 7c 63 be
       -0.5204465 0.36233452 -0.77441776 -0.22215313
000140 cf 73 54 be 56 23 b6 3e db 7a 93 3e 0c c8 3d 3f
       -0.20747302 0.35573834 0.2880467 0.7413337
000150 47 ae c6 bd 49 42 d8 be f3 5e 0b be a4 b6 dd be
       -0.097012095 -0.42238072 -0.13610439 -0.43303406
000160 91 e9 bb bd 93 12 cf be e1 cf 98 3e ce 78 21 bd
       -0.09175409 -0.40443859 0.298461 -0.03942185
000170 4a db c0 3e 52 1d 06 be 22 4c de 3e 2e 94 d8 be
       0.37667304 -0.13097122 0.4341746 -0.42300552
000180 a1 09 87 be 20 5a 94 bc 8d ab 27 be 6a f0 88 bf
       -0.26374534 -0.018109381 -0.16374035 -1.0698369
000190 6c 8c 9a bd 19 f9 a5 3e 3e 4c 2d 3f 32 ef 84 3e
       -0.075463146 0.3241661 0.6769446 0.25963742
0001a0 2b bd 79 bd 1c 30 1f be 7e 2d c7 bd 47 d7 13 be
       -0.06097142 -0.15545696 -0.09725474 -0.1443759
0001b0 9c dc 79 3e eb 42 a6 3e 91 d4 d3 3e e7 88 03 bf
       0.24400562 0.3247293 0.41373113 -0.5138077
0001c0 29 f5 24 3e 0b 79 03 bd 5d 6d 5d be ce d3 21 bf
       0.16109146 -0.032097857 -0.2162375 -0.63213813
0001d0 42 98 39 bf 9a b0 87 3d ac b1 fa bd 64 9d cc 3c
       -0.7249795 0.06625481 -0.122409195 0.024977393
0001e0 89 ff d9 be 0f 6b 98 3c c9 08 14 3d 18 3c dd 3e
       -0.4257777 0.018605737 0.03614119 0.4320991
0001f0 43 7a c1 3e c1 e8 0a 3f 59 9b c8 3e e3 a0 82 be
       0.3778859 0.54261404 0.3918102 -0.25513372
000200 34 29 b6 bd 72 f6 80 be 80 13 4e bf 55 f1 31 be
       -0.088945776 -0.25188023 -0.80498505 -0.17377217
000210 bd 8f 06 be b6 c1 81 3c 66 25 07 3d aa 0b 1f bf
       -0.1314077 0.015839439 0.03299465 -0.6212717
000220 6b 54 cd be f4 5c d5 be 8d 8b 1f 3e a1 c8 07 bc
       -0.40103468 -0.4167248 0.15580578 -0.00828758
000230 59 25 ac 3e e8 a1 33 3f 51 85 86 3d 13 07 44 be
       0.33622244 0.70168924 0.06568397 -0.19143324
000240 7f 60 16 3f a1 25 0c 3f f1 b7 bf bd f3 8e 4b 3e
       0.5874099 0.5474492 -0.09361256 0.1987875
000250 af ee 8a 3e e8 8f 3a 3d 25 e5 54 3e 12 ad d7 3e
       0.27135226 0.045547396 0.20790537 0.4212423
000260 36 a7 a9 be 6b c6 14 be f0 98 37 3e ba 54 96 3c
       -0.33135384 -0.14528815 0.17929435 0.018350948
000270 16 d9 86 3e c6 d6 e2 bd 85 83 03 be 59 ca 17 3f
       0.26337498 -0.11076121 -0.1284314 0.59293133
000280 16 98 5a 3e c7 c9 b4 bb f5 c8 db be e8 c2 d0 3e
       0.21347079 -0.005517218 -0.42926756 0.40773702
000290 56 c7 c1 3d 8d fa 8a be 68 d8 32 bf 02 4a ee be
       0.094618484 -0.2714428 -0.6986146 -0.46540838
0002a0 86 59 a6 3e 11 38 d4 3e ff fa a5 be 41 e4 4e bf
       0.32490176 0.41449025 -0.32418057 -0.8081704
0002b0 2e 1d 3a 3c dc 91 a9 be 50 9c 91 bd b3 4c 90 3d
       0.011359496 -0.33119094 -0.07109892 0.07045879
0002c0 26 21 03 bf da 8c a9 bd 44 f1 6c bd 46 ce 3a 3f
       -0.51222456 -0.082788184 -0.057847276 0.72971
0002d0 e0 51 10 be 72 73 fd 3e 1e d4 f6 3e 29 92 43 3f
       -0.14093733 0.4950214 0.48208708 0.763949
0002e0 0e 45 38 bf 92 f0 c2 3d 9f a5 32 bd 49 37 28 3f
       -0.7198037 0.095185414 -0.04361498 0.6570936
0002f0 23 10 bf 3d 7f be 5c 3e 5d 3a a3 3e d4 54 0d 3f
       0.0932925 0.21557043 0.31880465 0.5520756
000300 da f9 19 3d 37 c4 a6 3e b1 1f 10 bd d7 3d 2a be
       0.037591793 0.32571575 -0.035186473 -0.16625153
000310 6d e6 ee 3d 5c 52 31 3e 82 50 33 bf 66 27 61 be
       0.11665044 0.17316574 -0.7004472 -0.21987686
000320 a0 eb ec 3c 90 13 98 3d af 2f e8 3d 57 cc b4 be
       0.028920949 0.07425606 0.1133722 -0.3531215
000330 03 f9 ba bd 57 7d 82 bd 53 98 27 be 2d f6 a1 3e
       -0.091295265 -0.06371563 -0.16366701 0.3163313
000340 e4 5d 0e 3d 91 bd ef be 4b ef 29 be 27 08 c1 be
       0.03475751 -0.46824315 -0.1659519 -0.37701532
000350 2f 01 86 be 53 2b 94 3e 60 24 49 bc 1d d8 53 bf
       -0.26172778 0.28939304 -0.012276739 -0.8275164
000360 63 35 e7 3b 4c 6f 87 3e 92 8e 66 be 47 0c 81 be
       0.0070559247 0.264521 -0.22515324 -0.2520468
000370 05 22 08 3c 4f f6 e8 3d 82 59 aa be 4a f3 4b 3d
       0.008308892 0.11375105 -0.33271414 0.049792565
000380 62 c6 bd be 90 fd de bd 57 43 b7 3d a2 60 8d 3e
       -0.37065417 -0.10888207 0.08948391 0.27612787
000390 af 5d 06 3f 50 e2 2a bf b9 4f 09 be 75 db e7 3e
       0.524867 -0.66751575 -0.13409318 0.4528462
0003a0 d4 01 1a 3d e5 4f 38 bd 4d 86 8a be 9a 0c f5 3b
       0.0375994 -0.04499807 -0.27055588 0.007478309
0003b0 94 2c de 3e cc b9 da 3e 0d e5 91 3e 79 66 aa be
       0.43393385 0.42719877 0.28495064 -0.33281305
0003c0 8c fa ca be 88 25 d2 be 63 3a 13 bb e3 95 88 be
       -0.39644277 -0.4104426 -0.002246522 -0.26676854
0003d0 1d fb 0b be 00 3d aa 3e 8b f5 14 3f 69 9e bb be
       -0.13670011 0.33249664 0.5818717 -0.36644295
0003e0 1f 3a 51 3e 66 44 cf be 3c 1d bb 3e 9a 37 81 be
       0.20432328 -0.4048187 0.36545742 -0.25237733
0003f0 85 87 c0 3e d2 40 d9 3e d0 25 06 bf 84 3e 70 3d
       0.37603393 0.42432266 -0.5240145 0.05865337

network_body._body_endoder.seq_layers.0.bias f4 [128]
000000 7e 96 85 3b a0 e1 56 bd c4 32 80 bd a5 a8 8b bc
       0.004076778 -0.052461267 -0.06259683 -0.01704819
000010 f3 bb 0e be 1e 5a 10 3d a1 19 f5 bd 01 0f 57 3c
       -0.13938884 0.035242192 -0.11967779 0.013126136
000020 96 93 3a bc 95 a5 d7 bd 1a 4b 4f bd f0 2b 53 bd
       -0.011387726 -0.10529629 -0.05060873 -0.051555574
000030 72 e1 d2 bc 69 f8 57 bd 8e f5 d6 bd e1 15 32 3d
       -0.025742266 -0.052727137 -0.104960546 0.043477897
000040 f1 9a f7 bd 55 82 a0 bd 75 1c f1 bd ea 24 97 bc
       -0.120900996 -0.07837359 -0.11773006 -0.01845022
000050 d6 26 eb bd 97 b0 24 be 76 dd 0c 3c ab 52 8d bd
       -0.11482017 -0.16082989 0.008597722 -0.06900533
000060 25 ab 2c bd 0c 94 dc 3b 8e 94 1d 3d 3b 05 03 bc
       -0.042155404 0.0067315158 0.03847175 -0.0079968525
000070 fa bd 3c bd 26 ca ba bd 75 75 49 bd 74 b8 7f 3d
       -0.046079613 -0.09120588 -0.04918428 0.062431768
000080 0d c8 e9 bd 7a 06 ad 3c e9 b3 77 3c 04 f5 63 bd
       -0.1141511 0.021121252 0.0151185775 -0.055653587
000090 ff 3d 87 bc d8 b7 93 bb bd 5f db bc 71 30 93 bd
       -0.016509054 -0.004508 -0.02677905 -0.07186974
0000a0 2a 3c 48 be 76 4f 0b be 98 58 14 bd 7c e6 04 be
       -0.19554201 -0.1360453 -0.036217302 -0.12978548
0000b0 b5 f9 3b 3b 79 5d c3 bb 66 dc 9d 3d 4e e3 fb bd
       0.0028682773 -0.0059620705 0.07708053 -0.12299214
0000c0 0a d9 01 bd 0d b0 cf bd 63 be 84 bd 4c 3a d8 bc
       -0.031701125 -0.10141001 -0.06481626 -0.026394986
0000d0 3a 73 08 3c f4 91 eb bd 35 74 0b be 96 5c 9a 3b
       0.008328253 -0.11502448 -0.13618548 0.004710744
0000e0 9a 97 bd bd 66 47 9e bd 67 1c cf bc 75 47 57 bd
       -0.09257431 -0.07728462 -0.025282098 -0.05255838
0000f0 6f 84 a8 3d dc 36 d4 bc 2c f7 c0 bd b7 a5 7d bd
       0.08228385 -0.025905065 -0.09422144 -0.061925616
000100 f4 a5 9e bd c9 bc b3 bd 44 60 c5 bd 28 e6 44 bd
       -0.07746497 -0.08776242 -0.09637502 -0.048071057
000110 32 4b fd bd 69 7c 2a bd c0 a4 22 bd 16 7a b7 3d
       -0.12367858 -0.041622553 -0.0397079 0.08958833
000120 bd 6c 6a bd 72 96 11 be 42 56 e5 bb 95 b8 8f bc
       -0.057232607 -0.14217547 -0.006998808 -0.01754407
000130 2f 08 13 be fd b4 b6 bd 21 bc e4 bc 38 5d 23 3d
       -0.1435859 -0.089212395 -0.027921738 0.039883822
000140 1b 34 ec bc ab 68 44 bc 3d 59 6f 3d 19 c9 82 bd
       -0.02883344 -0.011987845 0.058434714 -0.063860126
000150 8d 5b 27 3c 81 b4 9d bd 06 b6 eb bc ec 6a d7 bd
       0.0102146985 -0.07700444 -0.028773319 -0.105184406
000160 95 25 f9 3c 32 69 af ba e5 54 09 be da 3d d5 bd
       0.030413428 -0.0013382791 -0.13411291 -0.10412188
000170 f5 82 24 bd 17 b2 a0 bd 50 7f c3 bd cd 95 f6 bd
       -0.040163953 -0.07846468 -0.09545767 -0.12040291
000180 65 e4 f6 bd 5f 93 06 3d 5a 3c e9 bc 50 e7 f1 bc
       -0.120552815 0.032855388 -0.02847116 -0.029529244
000190 5e 60 0c 3d 96 19 9d bd ec c1 ce bc 1a 1d 03 be
       0.03427159 -0.07670896 -0.025238954 -0.1280407
0001a0 dc c5 01 bc 53 e8 d6 bc 99 53 ae bd 11 72 52 bd
       -0.0079207085 -0.026233828 -0.08512039 -0.051378313
0001b0 c9 08 05 bd 22 b7 59 bc 0c 8e 08 bd 6f 7f 22 bd
       -0.03247908 -0.013288291 -0.03333859 -0.03967231
0001c0 3f 74 e6 bd 71 b7 bb ba 0e fc dd bd ef 64 d4 bd
       -0.11252641 -0.0014321638 -0.10839091 -0.10370814
0001d0 a4 0a 17 3c 4c 25 80 bd 0f 40 03 be 16 34 ab bd
       0.0092188455 -0.06257114 -0.12817405 -0.08359544
0001e0 94 0e 83 bd 17 c7 eb bd 7a 52 cd bc 8e 1b e0 bc
       -0.06399265 -0.11512583 -0.025063742 -0.02735689
0001f0 18 7c cf bd 9b fb 8c bd 71 36 22 3d 34 c5 60 3a
       -0.10131091 -0.068839274 0.0396027 0.00085743074

network_body._body_endoder.seq_layers.2.weight f4 [128, 128]
000000 17 43 cb bb 07 57 eb 3c df 35 ee bd 17 62 11 3e
       -0.006203066 0.028728021 -0.11631369 0.14197575
000010 f4 ed 38 3d 08 19 e1 3c 07 6b 4b bd 73 ac ef bd
       0.045148805 0.027477756 -0.049662616 -0.11702814
000020 ae 5a df 3d 6d 55 05 bd 09 56 12 3d c8 50 9b be
       0.10905968 -0.03255217 0.03572658 -0.3033507
000030 3e a7 4e be b6 3c c2 3d ca 82 6f 3d fd a3 a2 bd
       -0.20180985 0.09484236 0.05847434 -0.079414345
000040 bf fa f6 bd 62 24 95 bd b7 4b 54 bd 68 29 d5 3d
       -0.12059545 -0.0728233 -0.05183002 0.10408288
000050 dc 74 b8 3d 43 1b 86 3d 46 ff 09 3c 1e 5d c2 bb
       0.09006664 0.065481685 0.008422678 -0.0059315106
000060 a4 19 64 be 4e 83 85 3d 56 3b 0e be e4 15 ba bc
       -0.22275406 0.06519185 -0.13889822 -0.022715516
000070 d7 2d 2c be 9b 09 e0 3d 92 90 21 be 4b e3 42 bd
       -0.16814362 0.10939332 -0.15777805 -0.047580045
000080 11 e4 21 be f9 01 0d 38 e9 8a 17 bd ee 18 c5 3d
       -0.15809657 3.3618857e-05 -0.03699771 0.096238956
000090 0a f8 b0 bc d0 99 26 bd 1c cf af 3d a8 9a 1c 3e
       -0.02160265 -0.04067403 0.08584425 0.15293372
0000a0 be db f0 3d 99 c3 5f bd e3 b2 42 be 61 ce 35 bd
       0.117606625 -0.054629896 -0.19013552 -0.04438627
0000b0 c8 06 89 bd e9 c4 ab 3c 98 95 04 be 2f f7 e6 bd
       -0.066907465 0.020967918 -0.1294769 -0.11277615
0000c0 6a 91 b5 3d eb 6a 28 3d 7a 2e 08 bd 7d 40 71 be
       0.08865626 0.04111759 -0.03324745 -0.23559757
0000d0 2c 2d c0 bd c1 90 31 3d ce 8d dc bd d6 70 32 be
       -0.09383616 0.04335094 -0.107692346 -0.17425856
0000e0 27 a6 4a bd 14 b2 8f 3d 79 48 9f bd 0b 5c 8f bd
       -0.04947486 0.070163876 -0.07777495 -0.06999978
0000f0 49 aa a5 bd e0 f0 3e 3d 19 18 8b bc 22 88 49 be
       -0.0808912 0.046616435 -0.016979264 -0.19680837
000100 27 88 4d bc 45 c4 9b bd 60 e2 f3 bb c0 aa 36 bd
       -0.012544668 -0.07605795 -0.0074427575 -0.044596434
000110 4e cf 97 bd 3d 15 b6 3d a1 a1 41 3d 42 79 fd 3b
       -0.07412587 0.0889077 0.047273282 0.0077354023
000120 b3 0c 89 3d 49 49 3f 3e fb d1 b8 bd 7f ad ba bd
       0.06691875 0.186803 -0.090244256 -0.09115123
000130 41 2a 92 bd 10 86 4b be 3e ca 2b bd cd c8 4a be
       -0.071369655 -0.1987536 -0.04194092 -0.19803162
000140 12 c4 11 be 7e c0 96 3d a2 9f 7c 3c 15 ca 04 be
       -0.14234951 0.07360934 0.015418919 -0.12967713
000150 d0 c8 82 be 2b 99 2c be d0 cf a3 3d f0 f1 de ba
       -0.25543833 -0.16855304 0.079986215 -0.0017009359
000160 dc fd e0 3c 9f e3 91 bd b0 69 56 bc 4e c3 8a ba
       0.0274648 -0.071234934 -0.013086721 -0.001058677
000170 e6 d6 26 bd 46 68 7b bb 10 7e 27 3d ee 9b 4c bd
       -0.040732287 -0.0038361712 0.040891707 -0.049953394
000180 8a f8 00 3e 11 46 f6 bc 4f a2 87 bd 53 6d 02 be
       0.1259481 -0.030062707 -0.06622755 -0.12737016
000190 47 c7 91 bd 4b 9f 5f be b8 17 12 3d 08 3d 01 bd
       -0.07118087 -0.21838109 0.03566715 -0.031552345
0001a0 07 b5 9d bc 26 76 a9 3d c6 f7 1e 3d a3 4b 13 be
       -0.01925136 0.08274488 0.038810514 -0.14384322
0001b0 c1 c7 49 be 34 86 04 be c3 e6 f9 bd cf b4 dd 3d
       -0.19705106 -0.1294182 -0.122022174 0.10825502
0001c0 1b 84 46 bd e3 af 2f be 1f ad fe bd b6 e4 8a bd
       -0.04846583 -0.17156939 -0.12435364 -0.067819044
0001d0 e5 cf 0d 3e e7 86 45 be 18 99 7a be 3c 33 7e bd
       0.13848837 -0.19289742 -0.24472463 -0.06206058
0001e0 ea 82 57 bd ee ae 1f bb 4a 3e 47 bc 87 d3 e3 bd
       -0.052615084 -0.002436574 -0.012160847 -0.1112433
0001f0 a0 59 d0 bd ac d7 b7 3d 14 95 b8 bc 99 ad 47 bd
       -0.101733446 0.08976683 -0.022532023 -0.04874954
000200 29 db f3 bd 02 14 de bd 29 82 ce 3d e7 4b a7 3a
       -0.11907036 -0.1084366 0.1008342 0.001276371
000210 67 58 50 bd 90 3e 2f bd 43 88 32 bd 21 e9 01 3e
       -0.050865557 -0.042784274 -0.04358698 0.12686588
000220 ea cf 69 3d e3 c5 a9 3d e4 a4 c8 bc 1d 0f a4 3d
       0.057083048 0.08289697 -0.024492688 0.08010695
000230 fc c0 9e 3d c0 02 42 3d e5 57 00 be b5 83 14 3e
       0.077516526 0.047365904 -0.12533529 0.14503367
000240 e1 ef 00 3e 60 ed cc bc b3 16 2b 3c 49 12 36 3d
       0.12591507 -0.025015533 0.010442424 0.04445103
000250 1f 80 89 bc ab 0b 3f be 55 dc cd 3d d7 de a1 3d
       -0.016784726 -0.18656795 0.100517906 0.079038315
000260 37 54 33 3d 15 37 fb 3d b8 2f f2 3d 65 1f ad bb
       0.043781485 0.122663654 0.11825508 -0.0052832835
000270 a8 9f 03 3e 1b 25 1f be 30 f9 24 3d ad aa 7b bd
       0.12853873 -0.15541498 0.040276706 -0.061442066
000280 60 32 3c 3e 00 57 91 bd 6b bd 40 bd 67 84 08 3c
       0.18378592 -0.07096672 -0.047055643 0.008332348
000290 05 03 b4 3d 53 c4 f2 3d c5 a8 13 3e a8 69 84 3d
       0.087896384 0.11853852 0.14419849 0.06465465
0002a0 ac 04 3c be 85 ce 95 bd a7 41 e8 3d 55 49 c3 bd
       -0.18361157 -0.07314781 0.11340647 -0.09535471
0002b0 90 f8 6f be 16 50 3b bc 81 c4 07 3c d2 08 b4 3d
       -0.23434663 -0.011432668 0.008286596 0.08790745
0002c0 58 73 8a 3d c3 5f 8f bc 9a 93 a1 bb 77 cc 9b bd
       0.06760281 -0.017501717 -0.0049309256 -0.07607358
0002d0 39 3f 61 3d ea bc 5b be db 8b ae 3d 04 3e 74 3d
       0.054991934 -0.21458784 0.08522769 0.059629455
0002e0 40 bd b7 bd ea e4 88 3d ce 03 fd bd f4 08 dc 3d
       -0.089716434 0.06684287 -0.12354241 0.10743895
0002f0 f5 33 3a 3d e8 da 9c bb a0 cc ca bd f4 c0 79 3d
       0.045459706 -0.004786838 -0.0990231 0.06097503
000300 27 ec 55 bd 61 cf 59 3d a6 04 f5 3c 83 7f ee bd
       -0.052227166 0.053176288 0.029909443 -0.11645415
000310 2d 33 80 be 3d 6f 33 3d e8 4b e9 3d 3a c9 5b 3d
       -0.25039044 0.043807257 0.11391431 0.0536587
000320 9e e8 4e 3d 6f c7 ca 3c 59 27 ab 3d 35 e2 35 bd
       0.05051481 0.0247533 0.08357114 -0.04440518
000330 ce 30 ad 3d b5 ed 16 3d a7 05 bb bd 71 e5 0d 3c
       0.084565744 0.03684779 -0.091319375 0.00866066
000340 b5 a4 9e 3c 8e 85 27 3c e0 cd ca 3d 40 86 7c 3e
       0.019365648 0.010224713 0.09902549 0.24660587
000350 f6 80 a7 3c ce 7d 0a bb 61 2f 99 be 68 7f 81 3c
       0.020447236 -0.0021132114 -0.2991896 0.015807822
000360 a4 38 fe 3d 8b b3 8b 3a 15 4e b5 bd 19 22 8b 3b
       0.12413147 0.0010658366 -0.088527836 0.004246008
000370 b7 cd ad bd 3b 79 19 be 54 84 c1 bc 71 05 f6 bd
       -0.084865026 -0.14987652 -0.02362267 -0.120127566
000380 41 89 0c 3b dd ad 89 bd 44 2e ab 3b 65 d7 9f 3d
       0.0021444114 -0.06722615 0.005224021 0.07804755
000390 8a d9 48 bb 29 68 6d bc ac 65 a1 3d 38 b7 be 3d
       -0.0030647242 -0.014490166 0.078807205 0.0931229
0003a0 dd a6 d5 bd a5 1c 35 be 9c 35 f7 3d 37 ac b6 3c
       -0.10432217 -0.17686708 0.12070772 0.022298915
0003b0 f3 86 8f 3c 5e 68 10 3d a7 5e 08 3d 10 af 1f 3a
       0.017520403 0.035255782 0.033293393 0.0006091455
0003c0 45 6f ea bd fc 7a 78 3d f0 57 dd bd 1f a8 c1 bd
       -0.11447004 0.060664162 -0.10807788 -0.09455895
0003d0 b5 63 b6 3d 5d ac 3e 3c ba a4 25 3d a7 f3 5c be
       0.08905736 0.011637774 0.0404403 -0.21577321
0003e0 49 0a 33 be 9c 35 2e 3d b6 0f 0b be 93 d0 4c bc
       -0.17484392 0.042531595 -0.13580212 -0.0125009
0003f0 7c f7 2f bc da 6f 22 3e df f3 ec bd 74 6a 7a be
       -0.010740157 0.1586298 -0.11569952 -0.24454671

network_body._body_endoder.seq_layers.2.bias f4 [128]
000000 95 71 8e 3b 4e 4e 4b bd 1c fa 1f bd 26 3f 90 3d
       0.004347036 -0.049635224 -0.039056882 0.070432946
000010 25 9e 25 3d 92 5c 51 3b d1 50 c4 3c 64 4e 7a bc
       0.04043402 0.0031946045 0.023964318 -0.015277479
000020 39 72 95 bc 40 c3 76 3c c8 0a 10 bd 08 d3 e2 3b
       -0.018242942 0.0150612 -0.03516653 0.0069221295
000030 40 97 66 3d 9e 47 c1 bc 8f e5 a3 3c 2c 91 0d bd
       0.056296587 -0.02359372 0.020006923 -0.034562275
000040 6a c7 7c 3c c5 b0 71 bc d1 66 e4 3c ae 49 64 3c
       0.015428403 -0.014751618 0.027881058 0.013933582
000050 a2 c0 7d 3c 08 d1 48 3c d4 d1 a8 3c 46 3b 1c bd
       0.015487822 0.012256868 0.020607866 -0.038142465
000060 49 cb 12 bd 57 81 16 3d ff 04 b9 bb 1d 9b 54 3d
       -0.0358384 0.03674444 -0.0056463475 0.05190574
000070 55 08 92 bb 52 d7 5d 3d d9 87 42 bc 13 d5 5b bd
       -0.0044565597 0.054160424 -0.011873209 -0.05367
000080 1f eb 35 3b fd c7 dc bc 1d b4 bc bc 3a 72 9e 3c
       0.0027758551 -0.02695083 -0.023035103 0.019341577
000090 e4 d9 b5 bc 98 82 a5 bd b6 a7 86 bc f6 ca f7 3c
       -0.022198625 -0.080815494 -0.016437393 0.030248147
0000a0 40 21 ee bc e3 64 03 bd a6 d9 f3 3b 82 e0 c7 3b
       -0.02906859 -0.032078635 0.007441717 0.0060997615
0000b0 ec 36 34 bd df de de 3c ba 6d 7c bd c4 00 1f bd
       -0.04399769 0.027205883 -0.06162808 -0.03881909
0000c0 b7 de eb 3a 12 38 c2 bb 49 51 03 3b e3 10 2c 3a
       0.0017995451 -0.0059270943 0.0020037463 0.00065637956
0000d0 76 7e 9b 3c fb 19 85 bd 04 7e 1e bd 7a 6c 15 3b
       0.0189812 -0.06499096 -0.038694397 0.0022800253
0000e0 1d 60 6c 3b c8 3d e2 bc 07 36 30 bd c6 32 9a ba
       0.003606803 -0.02761735 -0.043020274 -0.0011764399
0000f0 7e b3 c8 bc f7 1e 82 bb 5a 97 17 bc 28 5c ce bc
       -0.024499651 -0.0039709765 -0.009252394 -0.025190428
000100 83 ff 75 3b 67 d2 9e ba 71 aa 04 bd d7 dd 02 bc
       0.003753633 -0.0012117148 -0.032389108 -0.007987461
000110 8a a5 fc bc 07 33 23 bc 3d b4 19 bd 09 7c d7 bc
       -0.030840654 -0.009960896 -0.037525404 -0.026304262
000120 48 d3 d6 bc 96 bf e4 3c 94 f4 a6 bc 9e b7 13 bb
       -0.026223794 0.027923387 -0.020380296 -0.0022539864
000130 f9 9d dc ba 90 fd ed bc 46 86 90 3b 9b a3 42 bd
       -0.0016831747 -0.029051572 0.004410538 -0.047519308
000140 b0 28 47 bb a2 4f 3f bd 09 9e 10 bd ce e2 5c 3c
       -0.0030389242 -0.046706803 -0.035306964 0.013481809
000150 43 b7 98 3c a3 2c 83 3c 5e e7 8e bc d7 bd cc bc
       0.018642073 0.016012495 -0.017444309 -0.024992866
000160 1b 55 ca bc c2 9e c3 3c 5d b6 26 bc e8 da 9d bb
       -0.024698785 0.023879413 -0.010175315 -0.0048173554
000170 5d d9 ae 3c 4c 95 1b 3d e2 3e 7c bb 13 b0 e7 bc
       0.021343881 0.037984177 -0.003848963 -0.0282822
000180 c1 5c 10 bd 8d 51 26 3c 2d d8 4d 3c ce 11 55 3c
       -0.035244707 0.010151279 0.012563747 0.013004733
000190 89 28 f8 3b 15 09 07 bd b0 12 0c bd a0 a9 ba ba
       0.0075731915 -0.032967646 -0.03419751 -0.0014241226
0001a0 c3 64 7c 3d 9e ff 36 ba 7b 52 d1 bc 5f fe 9a 3c
       0.06161953 -0.0006980839 -0.025552025 0.018920122
0001b0 06 90 71 3c d5 b4 42 3c 7c b4 ff 39 ad 3f 33 bc
       0.0147438105 0.011883934 0.00048771861 -0.010940474
0001c0 6e 56 81 bd 92 0f ac bc 37 f6 a5 bc c9 3a 3a bd
       -0.06315313 -0.021003518 -0.020259006 -0.04546622
0001d0 4b b6 38 bd 35 27 7a 3b af 6f 02 bd a3 57 46 bd
       -0.045095723 0.0038170342 -0.03184479 -0.04842342
0001e0 fd e0 9d 3d 2f 76 14 3c 0b a6 dc 3c 9f f5 18 bb
       0.07708929 0.00906138 0.026934644 -0.002333976
0001f0 ec 2f 90 bc b0 2e 28 3c f2 f0 18 bd b5 a8 e3 bc
       -0.017600976 0.010265037 -0.03733916 -0.027790407

action_model._discrete_distribution.branches.0.weight f4 [40, 128]
000000 e2 f0 00 3d 1b 7a 9d bd a0 89 9c bd 27 22 29 3d
       0.031479724 -0.076893054 -0.076434374 0.041292336
000010 8c cf 7c 3c 62 09 eb bd 34 1a 85 3b ae b2 8e 3c
       0.015430342 -0.11476399 0.0040619615 0.017419185
000020 8e 73 91 bd 3b a9 f0 bc 2c ce 8c bb 06 b4 79 3d
       -0.071021184 -0.02937757 -0.0042970385 0.0609627
000030 98 69 a2 bd 20 0c 20 3b 7a 29 fb bc 38 f0 63 3c
       -0.07930297 0.002442129 -0.030659426 0.013912253
000040 1f 42 a3 3c fc d3 fb bd 56 00 8d bd 11 52 8b 3d
       0.01992899 -0.12296292 -0.0688483 0.06802762
000050 32 fd cf 3c 8c 17 6d bd fd bd a2 bd 61 fb 0a be
       0.025389288 -0.057883784 -0.07946394 -0.13572456
000060 cc 18 d1 3b ee 6b 82 3c 93 4a 0a bd 22 31 00 be
       0.00638113 0.015920606 -0.033762526 -0.12518743
000070 c1 40 65 3d 77 7f 71 bd b2 4b a5 3c 70 71 f1 3c
       0.055969957 -0.05895945 0.020177696 0.029473037
000080 ef 02 da bd a0 53 e4 bd e1 e2 d6 bd 47 7b 0c bd
       -0.10645091 -0.11148763 -0.104924925 -0.034297254
000090 fb 08 c3 bc ff df 35 bd 13 d4 13 bc a1 fb 25 bd
       -0.023807993 -0.044403072 -0.00902273 -0.040523175
0000a0 37 c4 d2 bd 31 44 6e 3b 48 7c e0 bd c6 1b f1 3c
       -0.10291331 0.0036356563 -0.10961205 0.029432189
0000b0 a8 44 9f bd 7d 46 8b bd d1 b5 13 3d 8e d3 8e bd
       -0.07776767 -0.06800554 0.036062066 -0.069739446
0000c0 39 4a d6 bd 98 35 7c 3d 91 6f a9 bd 00 a5 9f bd
       -0.104633756 0.06157455 -0.08273233 -0.07795143
0000d0 55 3f f4 3d 8e b7 97 bc 23 d0 d0 bd dc 31 5c bd
       0.11926142 -0.018520143 -0.10195949 -0.053758487
0000e0 72 08 22 3d ae 0a 3b bd 94 c7 8b bd ca cf 8f 3d
       0.039558835 -0.04566448 -0.06825176 0.070220545
0000f0 b0 e0 d5 bd 98 bb dd 3c 64 1c ee bb 03 ec 26 bd
       -0.10443246 0.02706699 -0.007266568 -0.040752422
000100 84 a0 a2 bd 65 38 c0 bd 78 3e 91 bd dc dc e6 bd
       -0.07940772 -0.093857564 -0.07091993 -0.11272594
000110 a6 07 0c 3c 8d 7d 7c bd 01 fd 52 bd dc fc ad bd
       0.008546745 -0.061643172 -0.051510815 -0.08495495
000120 a8 7a 38 be 6c a7 a0 3d ed 8e 2a 3e d7 de 1f bb
       -0.1801554 0.07844433 0.16656084 -0.0024394298
000130 8b 32 91 bd 1c 05 9e bd ec 08 8a bd e4 77 f0 bc
       -0.070897184 -0.07715818 -0.06739983 -0.029354043
000140 a8 e2 ea 3d 44 85 45 3d 7f d6 9c bd 63 11 12 3d
       0.114690125 0.048222795 -0.076580994 0.035661113
000150 e5 b5 b4 bd 86 7c ac 3c 8f e1 f0 bb 09 35 3b bd
       -0.08823756 0.021055471 -0.0073511074 -0.045704875
000160 82 78 0f bc f0 10 b5 bc 75 fb a5 bd 3e 63 35 3d
       -0.008756759 -0.022102803 -0.08104602 0.044284098
000170 92 a5 87 bd ac 28 df bc 9f 82 23 bc cf 27 8c bd
       -0.06623377 -0.027241074 -0.009979873 -0.068435304
000180 46 09 81 bb fa e4 2c 3d b8 0a 05 bc cc 9b 1c 3c
       -0.003937873 0.042210557 -0.008120231 0.009558629
000190 dd c2 02 bb f9 a9 9b bd 3c f2 7f 3d 22 94 9c bd
       -0.0019952573 -0.07600779 0.062486872 -0.076454416
0001a0 28 29 30 be f6 74 17 3b eb dd 58 bd 98 a3 16 be
       -0.172032 0.0023110486 -0.052946012 -0.14710844
0001b0 e0 83 05 bd e3 25 01 3e a0 76 15 bd c0 45 b6 3c
       -0.03259647 0.12612109 -0.036490083 0.022250056
0001c0 db 45 2d bd eb ea 6a 3d d3 9e be 3a ea e5 c6 bd
       -0.042302947 0.05735294 0.0014543183 -0.097118214
0001d0 60 92 b9 bd 95 5a 81 bc 44 d4 c7 bd f9 2a 95 3d
       -0.09061122 -0.015790263 -0.09757283 0.07283587
0001e0 29 3f 25 3c aa a7 ad 3d e1 ff ae 3d 69 22 9b bd
       0.010085859 0.08479245 0.08544899 -0.075749226
0001f0 13 3e 70 bc 40 6a 9f 3c b2 6a d1 bb b4 be 01 be
       -0.014663237 0.019459844 -0.006390893 -0.12670404
000200 44 11 1a 3c 0c 0a fe 3c 32 98 85 3d ba 63 67 bc
       0.0094035305 0.03101065 0.065231696 -0.014122898
000210 df f8 99 3d 7a 8a 90 3c 4e ef 82 3d 3d 77 b3 3d
       0.075181715 0.017644156 0.063933 0.08762977
000220 2d ef 91 3d fc 18 55 bc a4 c3 1a 3c eb fe 5c 3c
       0.07125697 -0.013006445 0.009446058 0.013488512
000230 f1 92 e6 3d f3 9b 45 3d 1e 89 85 3c 89 9d 1d 3d
       0.112584956 0.048244428 0.016300734 0.038480315
000240 58 1b cd bd ba 71 a2 3d e1 73 9f bd 3e c4 f3 bc
       -0.10014981 0.07931848 -0.07785774 -0.029756662
000250 93 99 80 bd 7b 78 d6 3d c6 fb 0e 3d b5 3f 06 3d
       -0.06279292 0.104721986 0.03490808 0.0327756
000260 e9 5d 3f 3d 85 2a 36 bd be c8 e9 bc 2e 67 7f 3d
       0.04672042 -0.044474144 -0.028538104 0.06235426
000270 5c 78 ca bd 70 d6 8e 3d 1e 8f 76 bd 12 34 58 bc
       -0.09886238 0.069744945 -0.06019508 -0.013196008
000280 53 e2 9b 3d ae 90 2b bc 95 2f 03 3d dd 27 09 bd
       0.07611527 -0.010471506 0.0320278 -0.033485282
000290 78 0f 9b 3c d9 4b 77 3d aa de 3d 3d db 1e 3f 3c
       0.018928275 0.06037507 0.046354927 0.011665071
0002a0 ef 12 93 ba 0e 8a 8a bd bc 55 9a 3d 99 ab 86 3c
       -0.0011220853 -0.06764613 0.07535884 0.016439246
0002b0 d8 4d c1 ba c2 27 99 3c 50 df 07 3d 02 10 13 3b
       -0.0014747931 0.018695716 0.03317195 0.0022439961
0002c0 95 03 b3 3c 8b 08 7b bc de e9 d5 3c 77 2c 71 bd
       0.021852294 -0.015321861 0.026112493 -0.058880296
0002d0 d3 e7 1f 3c 2e 65 b8 3d b3 e2 9a 3b c5 e4 2b bd
       0.009759861 0.090036735 0.0047267317 -0.04196622
0002e0 95 cd 81 bc a0 ac 81 3d ba f2 92 3d a9 b8 e5 3c
       -0.0158451 0.06331754 0.07175203 0.028042154
0002f0 64 e9 c9 3d 20 b6 7a 3c 04 d5 8e bd f8 30 7c bd
       0.09858969 0.015302211 -0.06974223 -0.061570138
000300 ea 34 fc 3c 65 a5 a7 bc e3 a9 09 3d 8f ef 5f 3d
       0.03078695 -0.020464608 0.033609282 0.05467182
000310 2c 74 06 bd ce c6 2f 3d 2f 86 45 3d 9b af d6 3b
       -0.032825634 0.042914204 0.04822367 0.0065516955
000320 e0 c5 61 3c cb 44 fc 3c 37 49 79 bd ee 7b 9d bd
       0.013780087 0.030794522 -0.06086084 -0.07689653
000330 89 fc a9 bd 39 55 3c bc ce 3f 28 bc de a9 96 3d
       -0.083001204 -0.011494928 -0.0102691185 0.07356618
000340 bb dc cc 3c e6 66 b6 ba bd 59 c7 3d 43 80 90 b9
       0.025007596 -0.0013916164 0.09733913 -0.00027561383
000350 2b ca 69 3d d1 e4 e2 bd 51 f5 e1 bc ae d8 16 3d
       0.057077568 -0.110787995 -0.027582796 0.036827736
000360 d2 68 64 3d 6e 24 a2 3c c8 c3 d2 3d 83 ba d2 bd
       0.055764027 0.019792762 0.102912486 -0.102894805
000370 bd 2b 5b 3d ca 40 0d 3e e1 19 16 3c fa 8e 30 bd
       0.05350851 0.13794246 0.009161443 -0.043105103
000380 6b b4 07 3d 14 f4 23 bd da 13 ca bd 3a 8b bb 3c
       0.033131044 -0.040027693 -0.09867068 0.022893537
000390 6c 5c a5 bd a3 b2 ba bd fa f0 c4 3d 44 c4 c3 bc
       -0.08074269 -0.091161035 0.09616275 -0.023897298
0003a0 76 01 c8 bc 5e 34 45 3d f4 e3 64 3d 45 d5 8b 3c
       -0.02441476 0.048145644 0.055881456 0.017069468
0003b0 da 87 4f bc a2 f3 58 3d 82 ee 23 3e 31 36 fc bd
       -0.012666667 0.05296672 0.16008952 -0.12315024
0003c0 30 3f 60 3d cb 56 b0 bd a8 25 50 bd 9b 7f 8a 3d
       0.05474776 -0.086103044 -0.05081716 0.0676262
0003d0 90 75 2c bd 00 13 ed bc df e0 1e bd d9 1d 15 bd
       -0.042104304 -0.028939724 -0.038788673 -0.036405418
0003e0 a5 79 73 3c c8 6c f0 3d 37 d4 65 3d d6 65 7f 3c
       0.014860545 0.117394984 0.056110587 0.015588244
0003f0 71 b9 f1 bc 59 7b 29 3d f2 08 ae 3d 17 08 1b 3c
       -0.02950737 0.0413774 0.084978 0.009462378

action_model._discrete_distribution.branches.0.bias f4 [40]
000000 54 37 ac 3d 67 65 16 bd 7d a1 fa 3b ae f0 bc bc
       0.084089905 -0.0367178 0.0076486454 -0.023063984
000010 b5 e4 8e 3d 26 00 a1 3b 3e 2c 71 bd a5 4c 78 bd
       0.06977216 0.004913348 -0.058880083 -0.06061997
000020 b1 c5 6e 3d 61 08 ba bd 82 27 01 3b ce 2f 27 bd
       0.058294002 -0.090836294 0.0019707386 -0.040817074
000030 5d 84 44 bd 96 4f 11 3c 7b 22 a4 bd 11 f4 8c bd
       -0.047977794 0.008869072 -0.08014389 -0.068824895
000040 4a a3 44 b9 53 86 a2 3c 19 57 4b bd a4 af da 3d
       -0.00018752847 0.019839441 -0.04964361 0.10678032
000050 87 a1 cb 3c 90 22 bf 3c 23 2b 03 bc b1 ab 26 bc
       0.024857296 0.02333191 -0.00800589 -0.01017277
000060 88 7f 25 bd c9 10 b1 3d bb df da bb cc 0a 92 bd
       -0.040404826 0.0864578 -0.006679503 -0.071309656
000070 42 5e 27 bd c5 a2 8c 3d f8 e4 69 3b 17 03 04 3c
       -0.040861376 0.06866983 0.0035689455 0.008057377
000080 e8 14 21 bd 6a 0a 5e 3c 16 86 d0 3c 0d 98 f4 3c
       -0.03932658 0.013552288 0.025454562 0.02985766
000090 48 90 5d 3d 86 3f 99 3d 7a 86 55 3d cd 82 88 bd
       0.054092675 0.07482819 0.0521302 -0.06665573

action_model._discrete_distribution.branches.1.weight f4 [30, 128]
000000 ec 14 67 bd 56 e7 82 3d 53 41 05 3e d3 40 89 3d
       -0.056416437 0.0639178 0.130132 0.06701817
000010 0c 63 a1 3d da 47 81 3d 62 4b 00 3d 24 94 ab 3d
       0.0788022 0.06312533 0.03132189 0.08377865
000020 d3 77 b2 3d 00 a6 dd 3d 67 ab 23 3e 5b b6 e1 3d
       0.08714261 0.108226776 0.15983354 0.1102111
000030 f1 6d 25 3d f8 82 54 3d 69 96 c4 3d c5 fc da 3a
       0.04038805 0.051882714 0.09599001 0.0016707411
000040 d5 91 79 3d f3 8a 09 3e a5 6f 8c 3d c3 97 b6 bc
       0.060930092 0.13431911 0.06857232 -0.022289163
000050 2c 69 28 3d 1f 15 fd 3d ed b9 f0 3b 9f 5f 22 3d
       0.041115925 0.12357544 0.007346383 0.039641973
000060 5d e7 09 3e d3 38 12 3d 3c 4c da 3d ca 90 ae 3d
       0.13467164 0.035698723 0.10659072 0.0852371
000070 c4 70 97 bd 0c aa 40 3c bf 4b 1c bd 70 1a fd bc
       -0.07394555 0.011759292 -0.038158175 -0.030896395
000080 97 61 25 3e 24 02 a5 bc a8 23 5a 3d a8 48 83 bc
       0.16150509 -0.020142622 0.05325666 -0.016025856
000090 82 73 b6 3d 29 88 b9 3d d2 d1 f7 3d 42 92 a3 3d
       0.0890875 0.090591736 0.12100567 0.07986881
0000a0 0a 46 a7 3d 18 63 84 bd f0 b9 2f 3d 63 e2 18 3e
       0.08167656 -0.06464213 0.042901933 0.1493011
0000b0 9e 4e 86 3d ad db ad bd 80 1f 4d 3d 23 1d ae 3d
       0.06557964 -0.084891655 0.05007887 0.08501651
0000c0 4b 00 bd 3d 9d 64 4b 3c a3 5e 11 3e ad 87 a5 bd
       0.092285715 0.012414125 0.14196257 -0.08082519
0000d0 17 5e 4f 3d 59 06 1a 3e c3 68 31 3e 4f 78 ac bd
       0.05062684 0.15041484 0.1732512 -0.084213845
0000e0 23 88 a8 3d 35 a1 b9 3d a0 0e df 3b 73 29 98 bd
       0.08229091 0.09063951 0.0068071634 -0.07429781
0000f0 85 73 cb bb 0c 70 f8 3d 8b e9 7a 3d 2f 40 de 3c
       -0.0062088394 0.12130746 0.06125788 0.027130214
000100 d5 f0 46 3e 0b 58 d4 3c c7 ec d3 3d bf d7 87 bc
       0.19427808 0.025920888 0.10347896 -0.016582368
000110 56 20 19 ba 6d d3 ec 3d bb ab e2 3c 66 01 fa 3d
       -0.0005841305 0.11563764 0.027669778 0.12207298
000120 21 2c 11 3c 8d d6 4d 3d 2b fc cb 3d 07 6b 15 3d
       0.008860619 0.05025344 0.099602066 0.036479022
000130 2a d1 66 3d 72 d6 2d 3c f2 6c bd 3d fd 56 55 3c
       0.05635182 0.01061021 0.09249295 0.013021228
000140 98 c7 09 3c d2 65 fb 3c 64 25 8d 3c db d8 47 3d
       0.008409403 0.0306882 0.017229743 0.048790794
000150 bf fe 20 3e 69 76 95 bd 39 d2 d8 3d 99 4c ae 3d
       0.15722178 -0.072979756 0.10586972 0.085107036
000160 48 59 06 3e 76 45 02 3b a9 16 c8 3d 66 b0 0d bd
       0.13119996 0.0019877828 0.09769947 -0.034592055
000170 27 63 9f bb 74 f0 61 bd fe bc 5c 3d ff 74 0b 3e
       -0.004864115 -0.055160955 0.053891174 0.13618849
000180 2c 82 f9 3d d0 7f 4a 3d 04 b6 0a bd ae 20 f8 3b
       0.121830314 0.049438298 -0.03386499 0.007572255
000190 54 3d 23 3d e2 08 4a bb a0 06 11 3c a4 3a 52 3d
       0.03985341 -0.0030828048 0.008851677 0.051325455
0001a0 6f 82 15 bd ca 4f 6d bd 4b ab 15 3d 01 bb 86 3d
       -0.036501344 -0.05793742 0.03654031 0.06578637
0001b0 39 c8 0a 3d e0 80 7b bd dd 55 d2 3d ff 50 92 3c
       0.033882353 -0.0614022 0.10270283 0.017860888
0001c0 5a 5f f2 3c f5 ea 66 bd 11 77 3d 3d dd 8d d5 3d
       0.029586483 -0.056376416 0.04625613 0.10427449
0001d0 1f 30 99 bd 4a 87 d9 3d af f5 46 3d 5b f7 01 3e
       -0.074798815 0.106215075 0.048574146 0.12692015
0001e0 57 63 b4 3c 0f d8 1d 3e 2d bf 14 3d 10 64 12 3d
       0.022020025 0.15414451 0.036315132 0.03573996
0001f0 04 e9 c5 3d aa d7 eb bd 43 e0 07 3e 7d 1c a5 3d
       0.09663585 -0.11515744 0.13269143 0.08062074
000200 5e a2 07 3d f2 68 0f 3d a5 c9 b6 3d 78 60 cb bd
       0.03311383 0.035012193 0.089251794 -0.09930509
000210 b1 41 44 3e c6 35 19 3e 54 6f 6f bd 23 73 eb 3d
       0.19165684 0.14961919 -0.05845578 0.1149657
000220 d3 6c 80 bc 9c e8 9f bd c3 b1 0f 3c 51 37 ba 3d
       -0.015676891 -0.078080386 0.008770409 0.09092582
000230 4d 25 0b be e4 ca 16 3d 23 1f ff 3c 43 13 dc 3d
       -0.13588448 0.036814585 0.031142777 0.107458614
000240 54 62 9d 3c f1 68 c0 3d 16 54 9f 3c d3 5a 33 bd
       0.019211926 0.09395016 0.019449275 -0.04378779
000250 ee 6e ba 3d 72 5b 91 3d 4c 4e 97 3d d8 e6 7b bb
       0.091031894 0.0709752 0.07387981 -0.0038437154
000260 91 3f 0f 3e 27 2b 23 bd 88 7c ae bc c6 4e 2e 3e
       0.13989092 -0.039836075 -0.021299616 0.17022237
000270 2a 14 06 3d 40 32 d6 3d 92 b7 79 3a f7 0e 04 3d
       0.032734074 0.10458803 0.00095259503 0.032240834
000280 ca 4b 99 3d 1e 38 5b 3d 17 19 e9 3c 64 8b 84 3c
       0.07485159 0.053520314 0.028454347 0.016179748
000290 ad 8c ad 3d 99 c3 54 3d 77 4a e4 3d 65 3a 01 3e
       0.084740974 0.05194435 0.111470155 0.12619932
0002a0 57 2e 3b 3d b6 54 e7 bc cc 35 9a bc 76 f1 36 3d
       0.04569849 -0.028238636 -0.01882448 0.04466387
0002b0 fd 64 6c 3d 4d 82 33 bd 6e 8b 9d 3d 01 1e 95 3d
       0.057713497 -0.043825436 0.0769261 0.072811134
0002c0 f2 9c a4 3d 9e 88 9e 3d ae 31 07 3d ee 2d 86 bc
       0.080377474 0.077409014 0.033006363 -0.016379323
0002d0 4e 6a f6 3b e9 d4 51 3d 44 53 f5 3c 12 f6 e9 bc
       0.0075199967 0.051228438 0.02994693 -0.028559718
0002e0 fb a7 1e bc 8d 3f 01 3e 00 ff 8a bd d4 58 0a bd
       -0.009683604 0.12621899 -0.06786919 -0.03377612
0002f0 ab 46 d5 bc 30 e6 92 3c 97 50 08 bc 02 d4 8b bd
       -0.026034674 0.017932028 -0.008319995 -0.06827547
000300 6a be cf 3d b7 4f 18 bb 55 a2 d5 3d b5 42 2a bd
       0.101437405 -0.0023240873 0.10431353 -0.041567523
000310 f2 d2 0e bd 87 98 ce 3d 15 03 0a bb 86 56 71 3d
       -0.034869142 0.10087686 -0.0021058966 0.058920406
000320 85 6d d3 3d 1f c1 63 3d 05 f5 3a 3d 31 f0 43 bc
       0.103236236 0.055604097 0.045643825 -0.011959122
000330 4d 78 dc bc f3 0c 41 3d df c7 3d 3a a8 89 aa bd
       -0.026912833 0.04713149 0.0007239561 -0.08327037
000340 1b f6 bd bc 67 bd 94 3d 56 81 8e 3d cf e8 47 3d
       -0.023188641 0.07262688 0.069582626 0.048806008
000350 5e 4c 89 3d 87 ec 3a 3d fb 03 76 3c 1a 03 00 3c
       0.06704019 0.045635726 0.015015597 0.0078132395
000360 a2 8e 02 3d 54 dc fc bd d2 fd 87 bd d1 ec 95 bc
       0.031874306 -0.12346712 -0.06640209 -0.0183014
000370 3e 84 5e 3b 8e 23 18 bb 05 ac 00 bd 7b d1 74 3d
       0.0033953334 -0.0023214552 -0.03141405 0.05977009
000380 d8 4d 33 bc ae 11 99 3c 23 9a 11 be b8 51 75 3d
       -0.010943852 0.018685188 -0.14218955 0.059892386
000390 93 80 0e 3d e2 4a 8d 3c 3d 93 db 3c 7f b3 03 3d
       0.034790587 0.017247621 0.026803607 0.032153603
0003a0 0f e2 fc bb 7d d9 0c 3e b1 2f 45 3c e3 0f 05 3e
       -0.007717378 0.1375484 0.012035296 0.12994342
0003b0 d6 fa ef 3d cf d8 81 3d dc d5 f3 3c b7 6f 59 3d
       0.11717765 0.06340181 0.029765062 0.053085055
0003c0 cc 36 70 bc 01 99 58 3d 90 fc a4 bd ef 5e 9b bc
       -0.014661502 0.05288029 -0.08055985 -0.018966166
0003d0 ec 5b 46 bd e1 2c cd 3b 00 f7 96 3d d4 1b 42 3d
       -0.048427507 0.0062614535 0.0737133 0.04738982
0003e0 bf a8 33 bd 26 95 25 3c 95 6f 88 3c 2f 91 4d 3d
       -0.0438621 0.010106361 0.016654769 0.050187286
0003f0 98 b5 fb 3c 31 8b f6 bc dc f2 86 3d 4f c0 d0 3d
       0.03072624 -0.030095669 0.065892905 0.1019293

action_model._discrete_distribution.branches.1.bias f4 [30]
000000 28 43 d0 bd 16 e8 06 bd d3 8f 3c bd 14 85 bd bc
       -0.10169059 -0.03293618 -0.0460356 -0.023134746
000010 45 81 26 bd 2a 67 53 3c fe 6c ee bd e0 e6 9f 3d
       -0.040650625 0.012903014 -0.11641882 0.07807708
000020 60 cc ea 3c 20 db cf 3d 65 9b da 3d a9 ac c8 3d
       0.028661907 0.10149217 0.106741704 0.09798557
000030 69 60 1a bd 34 82 1a 3d 91 1c cc bb 6a 1f b9 3d
       -0.0376896 0.037721828 -0.0062289913 0.09039195
000040 dc e3 93 3d 9a 34 69 3c 16 31 af 3c 03 27 66 3d
       0.07221195 0.014233733 0.02138571 0.05618955
000050 c1 e5 99 bc 8e 44 29 bd d4 a5 45 bc 5e af 37 3c
       -0.018786313 -0.041325144 -0.012063462 0.011211244
000060 64 4b 7c 3d b5 3a 65 bd 7f 2e 43 bd fb 37 f0 bc
       0.061595336 -0.05596419 -0.047651764 -0.029323569
000070 0e 71 a7 bd 66 60 43 bc
       -0.0817586 -0.011924839
